PaddockTS/IndicesAndVegFrac/_models/fcModel_256x128x256.tflite (tflite, 274720 bytes, 8 tensors)

sequential_6/dense_24/MatMul/ReadVariableOp/transpose f4 [256, 5]
0	0x3e18f75c	0.1493811
1	0xbd1e4e46	-0.038648866
2	0xbda2372c	-0.079206795
3	0x3d56b898	0.052422136
4	0xbe17990c	-0.14804476
5	0x3adcd9f8	0.0016849628
6	0x3ed00a2a	0.40632755
7	0x3dc05c3b	0.093925916
8	0x3e09ae25	0.13445337
9	0xbee40f8f	-0.4454312
10	0xbc672b13	-0.014109391
11	0xbd19ca29	-0.03754631
12	0x3de95832	0.11393775
13	0xbe366081	-0.17810251
14	0xbd2bcab5	-0.041941363
15	0x3eb7b7fe	0.35882562
16	0xbe48f03f	-0.19622897
17	0xbb9c68cd	-0.0047732354
18	0x3e8db7d7	0.2767932
19	0xbf05b4e7	-0.5222916
20	0x3e2f30d3	0.17108469
21	0x3e59c290	0.21265626
22	0x3c7638e4	0.015028212
23	0x3e33fe25	0.17577417
24	0xbec44604	-0.38334668
25	0xbde6f0fe	-0.11276434
26	0xbd9cf7ef	-0.07664477
27	0x3d9002e7	0.070318036
28	0x3d50e711	0.051001612
29	0x3ceeb285	0.02913786
30	0x3c613404	0.013745312
31	0x3d5a516c	0.053300306
32	0x3e81b2b2	0.25331646
33	0x3de4521c	0.111484736
34	0xbe922e16	-0.28550786
35	0xbe057efe	-0.13036725
36	0xbd3e07fe	-0.04639434
37	0xbe00bab4	-0.12571222
38	0x3c4b5810	0.012411132
39	0xbdce8bde	-0.10085271
40	0xbebbaffb	-0.366577
41	0x3d2c9b9f	0.0421406
42	0x3e3ee3a2	0.18641523
43	0x3e36de82	0.17858317
44	0xbdfdaf37	-0.12386935
45	0xbe4dd690	-0.2010138
46	0xbdb06457	-0.08612888
47	0x3dce7943	0.100817226
48	0x3e7276dc	0.23678154
49	0xbe4c5248	-0.19953263
50	0xbd534e9e	-0.051588647
51	0xbe1a72f3	-0.15082912
52	0x3c628ee8	0.013828017
53	0xbe071114	-0.13190109
54	0xbd1c8304	-0.038210884
55	0xbd1d6c8b	-0.038433593
56	0xbe36976e	-0.17831203
57	0xbcefdffa	-0.029281605
58	0x3dd02736	0.10163729
59	0xbde38cdc	-0.11110851
60	0x3f08ec4c	0.5348556
61	0xbf1277a1	-0.5721379
62	0x3da30521	0.07959963
63	0x3e01bc19	0.1266941
64	0xbd258008	-0.040405303
65	0x3e42a0a0	0.19006586
66	0x3f27f5e2	0.6560956
67	0xbefe0f8f	-0.49621245
68	0xbe8add9c	-0.271222
69	0x3ebefeac	0.37303674
70	0xbf69c896	-0.91321695
71	0xbeb68cc7	-0.3565428
72	0x3d46b7e2	0.048515208
73	0x3d07cbcf	0.03315335
74	0x3e40d31f	0.18830536
75	0xbdab7995	-0.08372799
76	0x3d845611	0.06461728
77	0xbdf89d9d	-0.12139437
78	0xbd0123ab	-0.031528156
79	0x3bcd82ee	0.0062717116
80	0x3d02c4f8	0.031926125
81	0xbdcbf9ab	-0.0995973
82	0xbdd7016a	-0.104983166
83	0x3ad4aa10	0.0016224999
84	0xbc2f8c00	-0.010714531
85	0x3e0ceb3f	0.13761614
86	0x3dc16f9e	0.094451174
87	0x3dfe3742	0.12412883
88	0xbd1ae1e9	-0.0378131
89	0xbcbd754f	-0.023127226
90	0xbdaf2479	-0.085518785
91	0xbdf7ae56	-0.12093799
92	0xbd05bda0	-0.032651544
93	0x3da8160e	0.082073316
94	0xbdf5ebda	-0.12007876
95	0x3e0aa799	0.13540496
96	0x3dc65091	0.096833356
97	0xbbabd617	-0.0052440274
98	0x3e4f2838	0.20230186
99	0xbea17dd6	-0.31541318
100	0xbd8f533f	-0.069983
101	0x3f1422b3	0.57865447
102	0x3d0ec312	0.034854002
103	0x3cf29d14	0.029615916
104	0xbe869e37	-0.26292583
105	0x3e10962c	0.14119786
106	0xbd3d0664	-0.046148673
107	0xbdc9a120	-0.09845185
108	0xbcf358e4	-0.029705472
109	0xbddfa0b0	-0.109193206
110	0x3d26191f	0.0405513
111	0x3c8b25bf	0.016985772
112	0x3bca5c49	0.006175552
113	0xbe1272da	-0.14301625
114	0xbd0e921a	-0.034807302
115	0x3da46003	0.08026125
116	0xbe132a29	-0.14371552
117	0x3da054d7	0.07828682
118	0xbdfd1676	-0.123578
119	0xbe13955e	-0.14412448
120	0xbde1b778	-0.11021322
121	0xbda7244d	-0.08161221
122	0xbe0f88ed	-0.14017077
123	0xbdcb065c	-0.09913322
124	0x3cc857d0	0.024455935
125	0xbe0a69a8	-0.13516867
126	0xbd5e257e	-0.054234974
127	0x3daef461	0.08542705
128	0xbe1775b9	-0.14791001
129	0xbd6dd488	-0.058064014
130	0xbf0c6e84	-0.54856133
131	0x3e4c7384	0.1996594
132	0x3d164fa0	0.03669703
133	0x3c3a01ff	0.011353015
134	0x3cae8577	0.021303875
135	0xbddf2bb2	-0.10897006
136	0xbd15e044	-0.03659083
137	0xbe07a0c7	-0.13244925
138	0xbc2c9898	-0.010534428
139	0x3ddfb694	0.10923496
140	0x3ecb53da	0.3971241
141	0xbef1b2d3	-0.47206745
142	0x3da017b1	0.07817019
143	0xbdb4cf08	-0.088285506
144	0x3e80d062	0.25158983
145	0xbe0888ce	-0.13333437
146	0xbb72262b	-0.003694902
147	0x3d1049de	0.035226695
148	0xbcb15045	-0.02164472
149	0xbdb1a4e4	-0.086740285
150	0x3da7afa6	0.08187799
151	0xbde26e9a	-0.11056252
152	0xbd68219e	-0.056672685
153	0xbd3fc340	-0.046817064
154	0x3dc8aa74	0.09798136
155	0x3e04c55c	0.12965912
156	0x3c455288	0.012043603
157	0xbde3c19a	-0.11120911
158	0xbd5dfb08	-0.05419448
159	0xbd4ef094	-0.050522402
160	0xbd963f04	-0.07336238
161	0x3de5e454	0.11225191
162	0xbc487790	-0.012235537
163	0xbd75c379	-0.06000087
164	0xbde4e7b8	-0.11177009
165	0x3c62396c	0.013807636
166	0xbe1aad0f	-0.15105079
167	0x3ea9c190	0.3315549
168	0xbeaa70c6	-0.33289164
169	0x3e5a95d8	0.21346223
170	0xbd42f09a	-0.047592737
171	0xbdad5ff3	-0.084655665
172	0xbd5710e6	-0.05250635
173	0x3d4835a4	0.04887928
174	0xbd9542f3	-0.0728816
175	0xbdf2523e	-0.11832093
176	0xbcc38fc1	-0.023872258
177	0xbdab86a0	-0.08375287
178	0xbc3da1d9	-0.011574232
179	0x3d08e073	0.033417176
180	0x3f132b9c	0.5748842
181	0x3e0e8e29	0.13921417
182	0x3d8a6e42	0.06759311
183	0x3e7849dd	0.24246927
184	0xbf007cd5	-0.5019048
185	0x3d8dd86e	0.06926046
186	0x3c822598	0.015887067
187	0xbcf0973f	-0.029368995
188	0xbd04f876	-0.032463513
189	0x3cb53e6f	0.022124497
190	0xbf1ddcd4	-0.6166508
191	0xbe9b01c1	-0.30274776
192	0x3df36e7c	0.118863076
193	0x3e54b39f	0.20771645
194	0x3e4fd19c	0.20294803
195	0xbd26f4f9	-0.040760968
196	0x3d09f5a6	0.033681534
197	0x3cd7ba84	0.026334055
198	0xbd704c42	-0.058666475
199	0xbde88233	-0.113529585
200	0xbda9290d	-0.08259783
201	0x3d642050	0.055694878
202	0xbd975c09	-0.07390601
203	0x3d5235dc	0.051320896
204	0xbe05ae4b	-0.13054769
205	0xbccad75c	-0.024760894
206	0x3e7f45e9	0.24929012
207	0x3d860b4b	0.06545123
208	0xbe8c3219	-0.2738197
209	0x3ddd3ee8	0.10803014
210	0xbed8983f	-0.42303655
211	0x3e9ffb1f	0.31246278
212	0xbe253c6c	-0.1613633
213	0x3e50c3dd	0.20387216
214	0xbe5f50fb	-0.21808235
215	0x3d4f7829	0.050651703
216	0x3e2cf223	0.16889243
217	0x3e13639c	0.14393467
218	0xbe9e6eb4	-0.30943835
219	0x3e2d50f3	0.16925411
220	0x3b0af843	0.0021205104
221	0xbe55d522	-0.20882085
222	0x3e5d2c75	0.2159899
223	0xbe86bad6	-0.2631442
224	0x3e27f112	0.16400555
225	0xbd3c2608	-0.045934707
226	0x3d018df0	0.031629503
227	0xbdfd5db5	-0.12371389
228	0xbe05c752	-0.13064316
229	0x3ae44940	0.001741685
230	0x3c9c989c	0.019115739
231	0xbe2dad9a	-0.16960755
232	0xbdbbfa47	-0.09178596
233	0x3d68d352	0.056842156
234	0x3b781612	0.0037854952
235	0x3d03d0ce	0.032181554
236	0x3c0b27f6	0.008493414
237	0x3cfbc702	0.030734543
238	0xbce4e8f5	-0.027943114
239	0xbd385615	-0.04500397
240	0xbf25e1f1	-0.64797884
241	0x3f1e5ecf	0.61863416
242	0xbd3f240f	-0.046665248
243	0x3c44aa18	0.012003444
244	0xbe07488b	-0.13211267
245	0xbc337ad8	-0.010954581
246	0xbf1ddeb5	-0.6166795
247	0x3e9b6878	0.3035314
248	0x3e1e4298	0.15455091
249	0xbe07f9e5	-0.13278921
250	0x3d0dc714	0.034613684
251	0x3df0bcbc	0.11754748
252	0xbd32f21e	-0.043687932
253	0xbd48117a	-0.048844792
254	0xbd6f73fc	-0.05846022
255	0xbede74a6	-0.4344837

sequential_6/dense_24/MatMul_bias f4 [256]
0	0x00000000	0.0
1	0xbcab09e6	-0.020878743
2	0xbd0058bc	-0.031334624
3	0x3d1ddc41	0.03854013
4	0xbbd55b4d	-0.006511128
5	0xbd312323	-0.0432464
6	0xbcf161fc	-0.029465668
7	0x00000000	0.0
8	0xbd0b7de1	-0.034055594
9	0xbb358062	-0.002769493
10	0x00000000	0.0
11	0xbd15adc0	-0.036542654
12	0xbcb91c22	-0.022596423
13	0xbcd42be0	-0.025899827
14	0x3d4918be	0.04909586
15	0xbcf34ba1	-0.029699149
16	0x00000000	0.0
17	0xbe05096c	-0.12991875
18	0x00000000	0.0
19	0xbbcdf3cd	-0.006285167
20	0xbcefa570	-0.029253691
21	0x00000000	0.0
22	0xbcf4c247	-0.029877795
23	0xbcc9a601	-0.02461529
24	0x00000000	0.0
25	0xbcddd773	-0.027080273
26	0x3c29a02a	0.0103531275
27	0x00000000	0.0
28	0xbca21ac0	-0.019788146
29	0xbcdc1211	-0.026864083
30	0x00000000	0.0
31	0x00000000	0.0
32	0xbcf3867e	-0.029727217
33	0x3b86ab47	0.0041097733
34	0x00000000	0.0
35	0xbcf7d12c	-0.030251108
36	0xbd79d536	-0.06099435
37	0xbd47653e	-0.048680536
38	0xbce970a7	-0.0284961
39	0xbd08b357	-0.033374157
40	0x00000000	0.0
41	0x3be36ae7	0.006940234
42	0x3d151ea1	0.036406163
43	0xbb6f1e86	-0.00364867
44	0x3d0375c5	0.032094736
45	0x00000000	0.0
46	0xbcf75420	-0.030191481
47	0xbd26459b	-0.040593725
48	0x3cc138cc	0.023586653
49	0x3d3068f4	0.04306884
50	0x00000000	0.0
51	0xbcbd85e2	-0.02313513
52	0xbdf7eff2	-0.12106313
53	0xbb4ab2b0	-0.003092926
54	0x00000000	0.0
55	0xbce90830	-0.028446287
56	0xbc7874b5	-0.015164544
57	0xbd081e24	-0.03323187
58	0x3bb43533	0.005499506
59	0x3c67b44b	0.014142106
60	0xbca2aeb7	-0.019858701
61	0xbe550eac	-0.20806378
62	0xbd6a6725	-0.057227273
63	0xbae62b83	-0.0017560575
64	0x00000000	0.0
65	0x00000000	0.0
66	0x00000000	0.0
67	0x3a804cea	0.0009788547
68	0xbd83284d	-0.06404171
69	0x00000000	0.0
70	0x3b5a1bbf	0.0033280698
71	0x00000000	0.0
72	0xbcf63ff8	-0.0300598
73	0xbcb1b61c	-0.021693282
74	0x3d1dfc3b	0.038570624
75	0xbceea0a7	-0.02912934
76	0x00000000	0.0
77	0xbc84bd33	-0.016203498
78	0xbdc14fde	-0.094390616
79	0xbdd03a9c	-0.10167429
80	0xbd0c8223	-0.034303796
81	0xbd582a90	-0.052774966
82	0x3dbb4576	0.09144108
83	0x00000000	0.0
84	0xbcf39dbb	-0.029738298
85	0xbd0fd4d4	-0.035115078
86	0x00000000	0.0
87	0x3d3d1f0a	0.04617218
88	0x00000000	0.0
89	0x00000000	0.0
90	0xbc977e87	-0.01849295
91	0xbd2b1b1f	-0.04177391
92	0x00000000	0.0
93	0x00000000	0.0
94	0xbd02c8f2	-0.031929918
95	0x3aa67c9c	0.0012701931
96	0x00000000	0.0
97	0xbd71d563	-0.059041392
98	0xbc1ebeb6	-0.009689024
99	0x3d463b63	0.04839648
100	0xbde38fc4	-0.111114055
101	0x3cbcfac4	0.023068793
102	0xbd3b2597	-0.045690145
103	0x00000000	0.0
104	0xbea9a31c	-0.33132255
105	0xbd67decf	-0.05660897
106	0xbce698b2	-0.028148983
107	0x00000000	0.0
108	0xbda24fe9	-0.07925398
109	0xbcf44b94	-0.029821195
110	0xbcd77a3d	-0.026303405
111	0xbc9e6b32	-0.019338224
112	0xbcf4a1cc	-0.029862307
113	0x00000000	0.0
114	0xbd0422e9	-0.032259855
115	0x00000000	0.0
116	0xbd16cf02	-0.03681851
117	0xbd50ebf3	-0.05100627
118	0x00000000	0.0
119	0xbcf1ad1b	-0.029501488
120	0xbcf03707	-0.029323114
121	0xbc71ab22	-0.014750274
122	0x00000000	0.0
123	0xbccc5029	-0.024940567
124	0xbbea5fd7	-0.0071525383
125	0xbd40def6	-0.047087632
126	0xbd039951	-0.032128636
127	0x3d30c9b4	0.04316111
128	0x00000000	0.0
129	0x3d4e350d	0.050343562
130	0x3cda991b	0.026684335
131	0x00000000	0.0
132	0xbd2f8511	-0.04285151
133	0x3c51fa33	0.012816
134	0x00000000	0.0
135	0x00000000	0.0
136	0xbd01192f	-0.031518158
137	0xbcd0833c	-0.025453202
138	0xbdc21527	-0.09476691
139	0xbd40481a	-0.04694376
140	0xbbc50f43	-0.006013782
141	0xbcf4d3dd	-0.02988618
142	0xbcfa1ee9	-0.030532317
143	0xbd261b3c	-0.040553316
144	0xbd2c01b3	-0.041993808
145	0xbc1d4a11	-0.009600178
146	0x00000000	0.0
147	0x00000000	0.0
148	0x00000000	0.0
149	0x00000000	0.0
150	0x3d542108	0.051789314
151	0xbcbad438	-0.022806272
152	0xbd69e139	-0.057099555
153	0x3c3306f5	0.010926952
154	0x00000000	0.0
155	0xbd83c16c	-0.06433377
156	0x00000000	0.0
157	0xbacabbe6	-0.0015467375
158	0xbcf58a66	-0.02997322
159	0x00000000	0.0
160	0x00000000	0.0
161	0x00000000	0.0
162	0xbcf56f76	-0.029960375
163	0xbcf42a79	-0.029805409
164	0xbce2a810	-0.02766803
165	0xbe054021	-0.13012744
166	0x00000000	0.0
167	0x00000000	0.0
168	0x00000000	0.0
169	0xbd0bb72c	-0.034110233
170	0x00000000	0.0
171	0x00000000	0.0
172	0x00000000	0.0
173	0xbcf54be4	-0.029943414
174	0xbdbd82e1	-0.09253479
175	0x00000000	0.0
176	0xbcd4085c	-0.025882892
177	0x00000000	0.0
178	0xbbcfe3b0	-0.006344281
179	0xbc418978	-0.01181256
180	0xbe64ac55	-0.22331364
181	0xbcfceb0f	-0.030873803
182	0x3d246e1f	0.040144082
183	0x3befcf8b	0.007318442
184	0xbcfeda97	-0.031110091
185	0x00000000	0.0
186	0x3dc6afdf	0.097015135
187	0xbd034634	-0.032049373
188	0xba162e34	-0.00057289307
189	0x00000000	0.0
190	0xbcea9061	-0.028633298
191	0xbd105b39	-0.035243247
192	0xbe3a6c4a	-0.18205371
193	0xbcbccf5d	-0.023048097
194	0x00000000	0.0
195	0x3d22be3d	0.039732207
196	0x3d410e25	0.04713263
197	0x00000000	0.0
198	0x3ca3ed6b	0.02001067
199	0x00000000	0.0
200	0xbd90e06c	-0.07074055
201	0x00000000	0.0
202	0xbceb2766	-0.02870531
203	0xbcee3f45	-0.029082904
204	0x3db078b4	0.08616772
205	0xbc914090	-0.017730981
206	0xbd4754a4	-0.048664704
207	0x3a45d55e	0.0007546748
208	0x00000000	0.0
209	0x00000000	0.0
210	0x00000000	0.0
211	0xbdc8ae4d	-0.0979887
212	0xbd2855af	-0.04109734
213	0xbcec7bf6	-0.028867703
214	0xbd94de90	-0.07269013
215	0xbb7e1847	-0.0038771795
216	0xbd0bb352	-0.03410656
217	0xbdce321e	-0.10068153
218	0xbb9a24c8	-0.0047040917
219	0xbcbe98e2	-0.02326626
220	0x00000000	0.0
221	0xbd4bbd3f	-0.049741026
222	0x00000000	0.0
223	0x00000000	0.0
224	0xbcc8b8d9	-0.024502205
225	0x00000000	0.0
226	0xbd352109	-0.044220958
227	0xbc5bdf5a	-0.01341995
228	0x00000000	0.0
229	0xbc49590a	-0.012289295
230	0x00000000	0.0
231	0x00000000	0.0
232	0xbd49c8ec	-0.04926388
233	0x3cfb9d22	0.030714575
234	0xbd4dcd5b	-0.05024467
235	0x3bd9ec3a	0.006650475
236	0xbd6d142c	-0.057880566
237	0x3c4f0f2f	0.012637897
238	0x3b597608	0.0033181924
239	0x00000000	0.0
240	0x3b586654	0.0033019977
241	0x00000000	0.0
242	0x00000000	0.0
243	0x00000000	0.0
244	0x00000000	0.0
245	0x00000000	0.0
246	0x00000000	0.0
247	0xbcf49d7f	-0.029860256
248	0xbd8f4084	-0.06994727
249	0x00000000	0.0
250	0x00000000	0.0
251	0x00000000	0.0
252	0xbcf5c980	-0.03000331
253	0x00000000	0.0
254	0xbcfe68a4	-0.031055756
255	0x00000000	0.0

sequential_6/dense_25/MatMul/ReadVariableOp/transpose f4 [128, 256]
0	0xbb847a91	-0.0040429314
1	0x3c0ed251	0.0087171355
2	0x3d18ee19	0.037336443
3	0xbda6df98	-0.08148116
4	0xbd0ed2b4	-0.03486891
5	0x3cea0014	0.02856449
6	0xbdce0cc5	-0.10061029
7	0xbcaf4895	-0.021396914
8	0xbd9c5ade	-0.07634519
9	0xbd05a23d	-0.032625426
10	0xbdb35495	-0.08756367
11	0xbdab3f50	-0.08361685
12	0xbddebbe4	-0.10875681
13	0xbdcf8d6a	-0.101343945
14	0x3d9241d0	0.07141459
15	0x3da7e087	0.08197122
16	0xbd8bd987	-0.068285994
17	0xbdbe0d38	-0.09279865
18	0xbdd0f17e	-0.10202311
19	0xbd492269	-0.04910508
20	0x3d0be46d	0.03415339
21	0x3dafd4a4	0.0858548
22	0x3d882c9f	0.06649136
23	0xb93c4136	-0.0001795337
24	0x3d0d4e4d	0.0344985
25	0x3cc914bc	0.02454602
26	0xbc5aa79a	-0.013345623
27	0xbdd5eb37	-0.10445254
28	0xbcac3c17	-0.021024747
29	0x3d86150d	0.06546984
30	0x3d28889b	0.041145902
31	0x3dce232c	0.10065302
32	0xbd9b44ab	-0.07581457
33	0xbd6c027e	-0.057619564
34	0xbcdb1e21	-0.026747765
35	0xbd1402eb	-0.036135595
36	0x3c73f64a	0.014890263
37	0x3cd58f6a	0.026069362
38	0x3d80a133	0.06280746
39	0x3d72d225	0.05928244
40	0x3d511859	0.05104861
41	0x3cedb862	0.029018585
42	0xb9d1c58d	-0.00040010773
43	0xba09dd18	-0.0005259081
44	0xbd57397b	-0.052545052
45	0xbccb66a5	-0.024829218
46	0xbdaf7f25	-0.08569173
47	0x3d70202c	0.05862443
48	0x3d9b46c3	0.07581856
49	0xbdfbf55b	-0.12302657
50	0xbd36ef1a	-0.04466162
51	0x3b73c70f	0.0037197506
52	0xbcc25b07	-0.023725046
53	0x3d0ae08b	0.033905547
54	0x3d9555bb	0.072917424
55	0xbd5c51bd	-0.05378889
56	0xbc1c23c4	-0.009530012
57	0xbdc2a846	-0.09504752
58	0x3ca3dac6	0.02000178
59	0xbcfaec6c	-0.030630313
60	0x3cf001a2	0.029297654
61	0x3d27819a	0.040895082
62	0xbe005c39	-0.1253518
63	0xbd8ca24b	-0.068668924
64	0xbd57f492	-0.052723475
65	0xbda06adb	-0.07832881
66	0xbcac7ef5	-0.021056632
67	0xbd163241	-0.03666902
68	0xbd9e2f9b	-0.07723924
69	0xbd805e01	-0.0626793
70	0x3b0ea8ac	0.0021768017
71	0x3d0af2f6	0.03392311
72	0xbcc649b8	-0.024205074
73	0x3d09a7ab	0.033607166
74	0x3cc3db82	0.02390838
75	0xbda0013f	-0.07812738
76	0xbbae4700	-0.0053185225
77	0xbdfa0c31	-0.122093566
78	0xbd7512fd	-0.05983256
79	0x3b573f0b	0.0032843973
80	0xbd942e25	-0.07235364
81	0xbb45bebf	-0.0030173508
82	0x3b9e3356	0.004827897
83	0x3d5013b1	0.05080003
84	0xbc9e8eea	-0.019355256
85	0xbca39a12	-0.019970927
86	0x3dc6b8f1	0.097032435
87	0x3b5381ca	0.0032273405
88	0x3c47b4cf	0.012189104
89	0x3c5e40c5	0.013565247
90	0xbda15444	-0.078774005
91	0xbd7ea320	-0.062167287
92	0x3d8bd61e	0.06827949
93	0xbd9ef751	-0.077620156
94	0xbc9e9063	-0.019355958
95	0xbd0e277c	-0.034705624
96	0xbda0924e	-0.078404054
97	0xbd9443d5	-0.072395004
98	0xbd9cf5bd	-0.07664058
99	0xbd909a4b	-0.07060679
100	0x3d7a6839	0.06113455
101	0xbd97b96b	-0.074084125
102	0x3c6c780b	0.014432917
103	0xbd82d53d	-0.06388328
104	0x3d719c9a	0.058987238
105	0xbdec9655	-0.11552111
106	0xbb6128f2	-0.003435668
107	0xbd1376ff	-0.036002155
108	0xbdea07f8	-0.11427301
109	0xbd932654	-0.07185045
110	0xbd779edc	-0.060454234
111	0x3d0f56c9	0.034994874
112	0xbd115180	-0.035478115
113	0x3dcfa8a4	0.101395875
114	0xbcb5c406	-0.022188198
115	0x3dcde0a9	0.10052616
116	0xbcabccb0	-0.020971626
117	0x3c1d8d08	0.009616144
118	0x3c9eaa20	0.019368231
119	0xbce9cbda	-0.028539587
120	0xbdc21d43	-0.094782375
121	0xbdcc0efb	-0.09963795
122	0x3d4d94f8	0.050190896
123	0x3d890c34	0.06691781
124	0xbd10350a	-0.035206832
125	0x3d34e9c6	0.044168256
126	0xbd041b4e	-0.032252602
127	0x3c68fe21	0.014220745
128	0x3da0ea96	0.07857244
129	0xbd413485	-0.047169227
130	0xbd3b5e2e	-0.045744114
131	0x3d825c0b	0.06365212
132	0xbde930be	-0.1138625
133	0x3d38af9c	0.04508935
134	0xbd8735a5	-0.06602029
135	0x3da52721	0.08064104
136	0x3ccc4ce8	0.024939016
137	0x3d788e7b	0.060682755
138	0xbc8a2fdd	-0.016868526
139	0x3ca95681	0.020671131
140	0xbdbd0c73	-0.0923089
141	0xbda56b20	-0.08077073
142	0xbcc70e48	-0.024298802
143	0x3ca7d2b6	0.020486217
144	0x3d50e1fc	0.050996765
145	0xbd84067b	-0.064465486
146	0xbdce9c94	-0.10088459
147	0xbdb008f5	-0.085954584
148	0x3da8d970	0.08244598
149	0xbdd06849	-0.10176141
150	0xbdd5c6d3	-0.10438313
151	0xbdc4ce57	-0.09609669
152	0x3d8a0379	0.067389436
153	0x3d864d98	0.065577686
154	0xbd17a2c9	-0.03702048
155	0xbd8d592a	-0.06901772
156	0xbd17cec2	-0.037062414
157	0xbdb6a366	-0.089178845
158	0x3cd1bed8	0.025603697
159	0xbdd68a69	-0.104756184
160	0xbda3d6e1	-0.07999969
161	0x3d9dff83	0.077147506
162	0xbbb1afcd	-0.0054225684
163	0x3b765ef5	0.003759322
164	0xbb1ef581	-0.0024255218
165	0x3d309680	0.043112278
166	0xbc90902b	-0.01764687
167	0xbc9233e7	-0.017847015
168	0xbd0cace9	-0.034344587
169	0x3cd84cfa	0.026403893
170	0x3bdf9588	0.0068232454
171	0x3c5c0be5	0.01343057
172	0x3c9ffd6a	0.019530017
173	0x3c91b999	0.017788695
174	0xbcad69ad	-0.021168554
175	0x3da1b6fb	0.07896229
176	0x3bc6d9f3	0.006068462
177	0xbd91f8e4	-0.0712755
178	0xbdd8ebd3	-0.10591855
179	0xbcc65f7d	-0.024215454
180	0xbb1de52a	-0.0024092891
181	0xbc4068f9	-0.011743777
182	0xbd420d7e	-0.04737615
183	0xbdce55e2	-0.100749746
184	0xbdf894be	-0.12137745
185	0x3daa3963	0.08311727
186	0xbd5cbd8c	-0.053891703
187	0x3d0b1104	0.033951774
188	0x3c114a43	0.008867803
189	0xbc73855d	-0.014863339
190	0xbaa902bf	-0.0012894495
191	0xbdd3f5c4	-0.103496104
192	0xbcca21af	-0.024674265
193	0x3d440e01	0.047864918
194	0xbb92e45b	-0.0044827885
195	0xbd9a22cb	-0.075261675
196	0xbe049021	-0.12945606
197	0xbdcab4c9	-0.09897763
198	0x3c56bec8	0.013107009
199	0xbd3d2c17	-0.046184625
200	0xbdde223f	-0.10846376
201	0xbc218781	-0.009858967
202	0x3d6032c8	0.05473593
203	0xbc3275c3	-0.010892334
204	0x3c95ae0b	0.018271467
205	0x3d058302	0.032595642
206	0xbde415d8	-0.11136979
207	0x3d61149f	0.054951306
208	0x3d987b99	0.074454494
209	0x3dafb943	0.08580258
210	0x3d7ab5e7	0.06120863
211	0xb9a575ad	-0.00031558928
212	0xbca88e31	-0.020575615
213	0xbd3f45c2	-0.046697386
214	0x3d92400c	0.07141122
215	0xbce28fbe	-0.027656432
216	0x3d010343	0.03149725
217	0xba4c66eb	-0.00077973184
218	0xbde97720	-0.113996744
219	0xbd572654	-0.052526787
220	0xbd1e3cba	-0.038632132
221	0xbd1d7231	-0.03843898
222	0x3d8d9bbd	0.0691447
223	0x3dcfb445	0.101418056
224	0xbdd0c4fe	-0.10193823
225	0x3cde36ec	0.027125798
226	0x3d781f2c	0.060576603
227	0x3d949e3a	0.07256742
228	0x3db41f67	0.08795052
229	0xbc63751e	-0.013882903
230	0x3ca7e734	0.020495988
231	0xbc38e5f8	-0.011285298
232	0x3bf6abd6	0.0075278087
233	0xbe00708c	-0.12542933
234	0x3d9b2ead	0.07577262
235	0xbd62f581	-0.055409912
236	0xbd62f491	-0.055409018
237	0xbb86f034	-0.00411799
238	0xbdf51af3	-0.11968031
239	0xbd948de3	-0.07253625
240	0xbdf75241	-0.120762356
241	0x3d22b43d	0.03972267
242	0xbce9972a	-0.028514463
243	0x3d839e59	0.06426687
244	0xb845a7ca	-4.7124726e-05
245	0xbd84c226	-0.064823434
246	0x3c5c8587	0.01345957
247	0xbd4f7599	-0.05064926
248	0xbdfb0af3	-0.12257948
249	0xbd825ba3	-0.063651346
250	0x3d8c6fbf	0.068572514
251	0xbcc2131c	-0.023690753
252	0x3dad7165	0.08468894
253	0x3cb933e4	0.022607751
254	0xbded6932	-0.1159233
255	0x3d43753e	0.047719233

sequential_6/dense_25/MatMul_bias f4 [128]
0	0xbcf5f805	-0.030025491
1	0x3c96335c	0.018335037
2	0xbcf5f13d	-0.030022258
3	0xbcec18c1	-0.028820397
4	0xbcf5d4fb	-0.030008784
5	0x3d30d4d7	0.04317173
6	0xbce8657b	-0.028368702
7	0xbce915b1	-0.028452726
8	0xbcf5ef42	-0.030021314
9	0xbd03ccf4	-0.03217788
10	0x3cec4228	0.02884014
11	0xbcef546f	-0.029215066
12	0xbc61f070	-0.013790235
13	0x3c9de1a5	0.019272635
14	0xbcea7159	-0.028618501
15	0xbc55a15d	-0.01303896
16	0xbce64541	-0.028109195
17	0xbd10a921	-0.035317544
18	0xbcf5f817	-0.030025525
19	0xbcd376d3	-0.025813496
20	0xbcf5f8ff	-0.030025957
21	0xbdd9b494	-0.10630146
22	0xbcf5f877	-0.030025704
23	0xbb021853	-0.0019850924
24	0xbcfb05d9	-0.030642437
25	0xbc728268	-0.014801599
26	0xbc2718ba	-0.010198766
27	0xbcbaf4be	-0.02282178
28	0xbd5621c9	-0.052278314
29	0xbcf596f5	-0.029979208
30	0xbcede04c	-0.029037617
31	0xbdccb70e	-0.099958524
32	0x3c6baf2f	0.014385029
33	0xbc431d1a	-0.011908794
34	0xbcf5cffa	-0.030006398
35	0xbc772908	-0.015085466
36	0xbce9df14	-0.028548755
37	0xbcf5f688	-0.030024782
38	0xbcf2d391	-0.029641898
39	0x3d16e2de	0.03683745
40	0xbd1fff97	-0.03906211
41	0xbb0b7a00	-0.0021282434
42	0xbcf5d95d	-0.030010873
43	0xbdcbff2c	-0.099607795
44	0xbcfc500b	-0.030799886
45	0x3cb9dc55	0.02268807
46	0xbc9a8def	-0.018866507
47	0x3d8312d5	0.06400076
48	0x3c327a92	0.010893481
49	0xbccc7449	-0.024957793
50	0xbd0f14f3	-0.034932088
51	0xbcc21cc2	-0.023695353
52	0xbda3c160	-0.07995868
53	0x3c09d896	0.0084134545
54	0x3d562922	0.05228532
55	0xbcf5c062	-0.029998962
56	0xbd270389	-0.040774856
57	0xbcf5a785	-0.029987106
58	0xbd114fb6	-0.03547641
59	0xbcf5f973	-0.030026173
60	0xbd17dadf	-0.037073966
61	0xbcd5a1ab	-0.026078066
62	0xbcf5ee8a	-0.03002097
63	0xbc0b9207	-0.008518702
64	0xbc890c25	-0.016729424
65	0x3cb5fd53	0.022215521
66	0xbceeb3a0	-0.029138386
67	0xbcf58056	-0.029968422
68	0x3c0e2932	0.008676814
69	0x3d3e8ef7	0.04652306
70	0xbd1ed681	-0.038778786
71	0x3b4f1b49	0.0031601957
72	0xbcf5d985	-0.030010948
73	0xbb29987a	-0.0025878237
74	0xbceeb460	-0.029138744
75	0xbcf601ca	-0.03003015
76	0xbcf13c8c	-0.029447816
77	0xbca05efa	-0.019576538
78	0x3d382c8a	0.04496435
79	0x3d5e12ef	0.054217275
80	0x3c9b4e26	0.018958163
81	0xbd54d484	-0.051960483
82	0xbc143595	-0.009045978
83	0x3c7860aa	0.015159765
84	0xbe15b0ea	-0.14618269
85	0xbd466bff	-0.048442837
86	0xbac610bf	-0.0015111192
87	0xbd800f6e	-0.06252943
88	0xbd033c94	-0.032040194
89	0xbc79c451	-0.015244559
90	0x3cbc8ad4	0.023015417
91	0xbcf5f909	-0.030025976
92	0xbd0dfbc9	-0.03466395
93	0xbcf5d391	-0.03000811
94	0xbc028444	-0.007966105
95	0x3cb0893b	0.021549812
96	0xbcef13ea	-0.0291843
97	0xbd0d4f4c	-0.03449945
98	0x00000000	0.0
99	0x3d526b1b	0.051371675
100	0xbd0170c8	-0.031601697
101	0xbcf5ecf3	-0.030020213
102	0x3d46aaa8	0.048502594
103	0x3c64d0f4	0.013965834
104	0xbda1cb59	-0.079001136
105	0xbc913d02	-0.017729286
106	0xbcf5d899	-0.030010508
107	0xbcf5f9b6	-0.030026298
108	0x3ce3f775	0.027827958
109	0xbabff87e	-0.00146462
110	0x3c477698	0.012174271
111	0xbcdfe2d3	-0.027329838
112	0xbcf5f846	-0.030025613
113	0xbcf581ba	-0.029969085
114	0xbd6bfd27	-0.05761447
115	0xbce934dc	-0.028467588
116	0x3d494b83	0.04914428
117	0xbcea4407	-0.028596891
118	0xbcfbb9bb	-0.030728212
119	0x3ca99adb	0.020703724
120	0xbddef8b8	-0.10887283
121	0x3cbbb48a	0.022913236
122	0x00000000	0.0
123	0x3ca23e84	0.0198052
124	0x3d3b35aa	0.045705475
125	0xbcf31690	-0.029673845
126	0xbd6520fb	-0.055939656
127	0xbd85a15c	-0.065249175

sequential_6/dense_26/MatMul/ReadVariableOp/transpose f4 [256, 128]
0	0x3d1ac458	0.037784904
1	0x3d1d9790	0.03847462
2	0x3d389630	0.045065105
3	0x3c971238	0.018441305
4	0x3ccf2830	0.025287718
5	0xbb82d1e2	-0.003992305
6	0xbceb5260	-0.028725803
7	0xbd5c81f8	-0.053834885
8	0x3dcdc340	0.100470066
9	0x3dbd5c28	0.09246093
10	0x3d49f870	0.049309194
11	0x3dd0e7c4	0.10200456
12	0xbd98081c	-0.07423422
13	0x3d7fb2ec	0.062426493
14	0xbdcfbe80	-0.10143757
15	0x3d679e00	0.056547165
16	0xbcf13540	-0.029444337
17	0x3d2a3a50	0.041559517
18	0x3dda7ebc	0.10668704
19	0x3d8f1c4c	0.06987819
20	0xbdf7977c	-0.1208944
21	0x3d8dd3c0	0.06925154
22	0xbca63f08	-0.020293728
23	0x3d83125c	0.06399986
24	0x3debad34	0.11507645
25	0xbdcc92c0	-0.09988928
26	0x3d594eb0	0.053053558
27	0xbd6e19e0	-0.058130145
28	0x3dcd1bfc	0.10015103
29	0x3ce97fb0	0.028503269
30	0x3b3ea7a8	0.002909163
31	0xbb277b28	-0.0025555585
32	0xbe018ec8	-0.12652123
33	0xb9137d28	-0.00014065637
34	0xbdf5a284	-0.11993888
35	0xbdbc63b5	-0.09198705
36	0xbdeae814	-0.11470047
37	0xbda3c1cc	-0.07995948
38	0x3df1b730	0.11802518
39	0xbe0d4669	-0.1379639
40	0xbd5b87a8	-0.05359617
41	0x3d4ae564	0.04953517
42	0x3dc5c35c	0.096564025
43	0x3d8fcbc8	0.0702129
44	0x3dc49220	0.09598184
45	0xbc6cb6f7	-0.014447919
46	0xbd8b25f0	-0.067943454
47	0xbd51a117	-0.051179018
48	0x3d99b938	0.07506031
49	0x3dd4be0c	0.10387811
50	0x3d036690	0.032080233
51	0xbdd83c4b	-0.10558375
52	0x3d2f2f78	0.04276988
53	0x3d102758	0.03519377
54	0xbde5f3c6	-0.11228137
55	0x3d26c8d0	0.040718853
56	0x3d8a6064	0.06756666
57	0x3de9e6dc	0.11420986
58	0xbc8de438	-0.017320737
59	0xbbe363d0	-0.006939389
60	0x3df11e90	0.117734075
61	0xbd9e5ce8	-0.07732564
62	0x3cc54af0	0.024083585
63	0xbdcf5590	-0.101237416
64	0xbe14fc9d	-0.1454949
65	0x3d035a98	0.03206882
66	0x3cefba00	0.029263496
67	0xbdcaaacc	-0.09895858
68	0xbdb31f5a	-0.08746214
69	0xbd82d6f3	-0.063886546
70	0x3dc2e784	0.09516814
71	0xbd560084	-0.052246585
72	0xbd425ab8	-0.047449797
73	0xbe0de112	-0.13855389
74	0x3deac360	0.11463046
75	0x3dd845ec	0.105602115
76	0x3d107ea8	0.03527704
77	0x3df5b4e8	0.11997396
78	0xbdea52fc	-0.11441609
79	0x3dae42f3	0.08508863
80	0x3dab1737	0.08354037
81	0xbd9d2124	-0.07672337
82	0xbda7f54c	-0.082010835
83	0xbd3dcc38	-0.046337336
84	0xbdbdd230	-0.09268606
85	0xbdaa83ac	-0.08325896
86	0x3dd79376	0.10526173
87	0xbd01ec38	-0.031719416
88	0xbde26bb4	-0.11055699
89	0x3d32a228	0.043611676
90	0x3d16f149	0.0368512
91	0x3cec11c0	0.028817058
92	0x3d85f9d4	0.065417916
93	0xbd6f3148	-0.058396608
94	0xbcd92630	-0.026507467
95	0x3d5b97da	0.053611614
96	0xbce691c0	-0.02814567
97	0x3d69eb68	0.057109267
98	0x3d4ccfd0	0.050002873
99	0xbd5e6894	-0.054298952
100	0x3b182128	0.0023213122
101	0xbde0d634	-0.10978356
102	0xbc9d407d	-0.01919579
103	0xbd8afe32	-0.06786765
104	0xbda76d90	-0.08175194
105	0x3daaac60	0.08333659
106	0xbdad57d8	-0.084640205
107	0x3daa7554	0.0832316
108	0xbd116718	-0.03549871
109	0x3d934d74	0.071925074
110	0xbd65d278	-0.05610892
111	0x3d9da66c	0.07697758
112	0xbdcb3628	-0.09922439
113	0xbdb2523c	-0.08707091
114	0x3da33de8	0.07970792
115	0xbdfae470	-0.12250602
116	0xbd166296	-0.036715113
117	0xbd418210	-0.047243178
118	0x3d143918	0.03618726
119	0x3dbe6c64	0.092980176
120	0x3d3bc418	0.045841306
121	0xbc316f28	-0.010829724
122	0xbd24a9a8	-0.04020086
123	0xbdfe8c88	-0.12429148
124	0x3da7dc80	0.08196354
125	0xbc8b4dd8	-0.017004892
126	0x3bd00610	0.006348379
127	0xbc1917c8	-0.009344049
128	0x39a68fd9	0.00031769162
129	0xbc171e4e	-0.009223534
130	0x3966c35e	0.00022007289
131	0xb916466f	-0.00014331353
132	0xb92e4df8	-0.00016622979
133	0xbbf8fbe1	-0.0075983857
134	0x397ec140	0.00024295319
135	0xb90aad68	-0.00013225304
136	0xb81d4d61	-3.750378e-05
137	0x37b7b2f7	2.1898637e-05
138	0xbcbab481	-0.02279115
139	0x3a1be1f6	0.00059464516
140	0x3997ece7	0.0002897747
141	0xbd5e926f	-0.05433887
142	0xb932787b	-0.00017020285
143	0x392d4a0e	0.00016526153
144	0x398c128f	0.00026716708
145	0xb9441591	-0.0001870005
146	0xb9c3a00f	-0.0003731255
147	0x39a40206	0.00031282025
148	0xb9c13a92	-0.00036855467
149	0x39eec47b	0.00045541287
150	0xb9ad9672	-0.00033109222
151	0xbf33499e	-0.70034206
152	0xb9a01b0c	-0.0003053773
153	0xbd0135dd	-0.03154551
154	0x39e31fe2	0.00043320569
155	0xb9ac8c8d	-0.00032911115
156	0x3a3404fb	0.0006867197
157	0x39350876	0.00017264657
158	0x38e54e48	0.00010934152
159	0x39bc2e1d	0.0003589251
160	0xbda452a4	-0.08023575
161	0x3983c2b2	0.00025131326
162	0x395b947d	0.00020940784
163	0x399d44e9	0.00029996716
164	0xb92cdb3f	-0.00016484874
165	0xb9b5e379	-0.0003469249
166	0xb92e9a63	-0.00016651447
167	0xbbdf9f57	-0.0068244147
168	0xb7430102	-1.162314e-05
169	0xbd906835	-0.07051126
170	0x39506999	0.00019875764
171	0x37c25776	2.316733e-05
172	0x389e777e	7.556284e-05
173	0x3ca554df	0.020182071
174	0xb9af1a7a	-0.00033398328
175	0xbd11a74c	-0.035559937
176	0xbeb19532	-0.3468414
177	0x38912b12	6.922161e-05
178	0x39e303a8	0.00043299538
179	0x3c8594c8	0.016306296
180	0xb8ea43b9	-0.00011170604
181	0xbeea2886	-0.45734042
182	0xbaea184e	-0.0017860027
183	0x38fa27bd	0.00011928331
184	0xb855dd67	-5.0989354e-05
185	0xb694a435	-4.42986e-06
186	0xb8ff5ed0	-0.00012177008
187	0xb8cc940c	-9.755054e-05
188	0xb964ab9c	-0.00021807704
189	0xbaef3e9e	-0.0018252914
190	0x383e20fb	4.5330245e-05
191	0xb8d40047	-0.000101089994
192	0xbb6d2baa	-0.0036189356
193	0xbd69b1ee	-0.057054453
194	0x398e21c7	0.00027109517
195	0x398d51ec	0.00026954652
196	0xbcd691d3	-0.026192581
197	0xbbaa35a3	-0.0051943823
198	0xbb170771	-0.0023045207
199	0xbdd43680	-0.103619576
200	0xb91c3840	-0.00014898274
201	0x3e201fc9	0.15637125
202	0x39bc69e2	0.00035937043
203	0xb7f1b326	-2.8812861e-05
204	0x39e3bbbc	0.00043436687
205	0x39023516	0.00012417542
206	0xb98d70a9	-0.00026977554
207	0x3aef87e3	0.001827475
208	0x3d1cc643	0.038275015
209	0xbb184538	-0.0023234617
210	0x3756f1ca	1.281169e-05
211	0xbbe7371e	-0.007056131
212	0x3a482aad	0.0007635754
213	0x3a107f17	0.0005512102
214	0xbc817188	-0.015801206
215	0x3b62dba6	0.0034615784
216	0x38bdc29a	9.04847e-05
217	0x396c894f	0.00022557865
218	0xbb1cc8dc	-0.0023923432
219	0x390dba29	0.00013516158
220	0x383f5ca8	4.562424e-05
221	0xb94cefc6	-0.00019544279
222	0x37397314	1.1053653e-05
223	0x3c7521ba	0.014961654
224	0x3a02d33f	0.00049905846
225	0x399ebb51	0.0003027567
226	0x39ec5986	0.00045080128
227	0xbd135f41	-0.035979513
228	0x38fa5c57	0.000119381286
229	0x3a024684	0.0004969614
230	0xbd77360e	-0.060354285
231	0x3c75a02f	0.014991804
232	0xb9a60583	-0.00031666094
233	0x395be637	0.00020971229
234	0x39bfe675	0.00036602063
235	0x39d635c1	0.0004085731
236	0xbe786222	-0.24256185
237	0xbe6dd0c1	-0.23224165
238	0x3c3dcc8f	0.011584415
239	0xb93bf575	-0.0001792515
240	0x36020aa7	1.937771e-06
241	0x398cbd9e	0.00026844157
242	0x39e349bf	0.0004335176
243	0x3999ab13	0.00029309894
244	0x3c3657b1	0.011129306
245	0xb952a943	-0.00020090216
246	0x37e87f99	2.7715972e-05
247	0xbb587f51	-0.003303487
248	0xb9e3664f	-0.0004337304
249	0x3cb541c7	0.022126092
250	0xb9e6d946	-0.000440309
251	0xbd352b79	-0.044230912
252	0xbc6a14e4	-0.014287207
253	0x398484bb	0.00025275894
254	0x39e6baa5	0.0004400808
255	0xb996cc85	-0.00028762608

sequential_6/dense_26/MatMul_bias f4 [256]
0	0xbcb5e60a	-0.022204418
1	0x3d28db1c	0.041224584
2	0xbcb1e777	-0.021716816
3	0xbcf3f8b8	-0.029781684
4	0xbcf5ad34	-0.029989816
5	0xbcf5f6ab	-0.030024847
6	0x3dab61e1	0.08368278
7	0xbd22f90e	-0.0397883
8	0xbcf5f787	-0.030025257
9	0xbce0f773	-0.027461743
10	0x3d0f0474	0.034916356
11	0xbcf58185	-0.029968986
12	0xbce29859	-0.027660536
13	0xbd225213	-0.039629053
14	0xbcf5ed79	-0.030020462
15	0xbd0c131c	-0.03419791
16	0xbcfd65c4	-0.030932315
17	0xbcacef4f	-0.021110205
18	0x3d8f4620	0.06995797
19	0x3d7e00d5	0.062012512
20	0xbcf5f99c	-0.03002625
21	0x3d806586	0.06269364
22	0xbcf5880d	-0.0299721
23	0x3cf40e96	0.029792111
24	0x3b3fb89b	0.002925432
25	0xbcf5f6fe	-0.030025002
26	0x3d10283a	0.035194613
27	0x3c431338	0.011906438
28	0x00000000	0.0
29	0xbd3e2400	-0.04642105
30	0xbcd752cd	-0.0262846
31	0x3d10785a	0.035271026
32	0x39d43c58	0.0004048075
33	0xbd0831d2	-0.033250637
34	0xbcf5f6c8	-0.030024901
35	0x3d6f8c22	0.05848325
36	0x3d7d7c8d	0.06188636
37	0x3d5bf906	0.053704284
38	0xbcde22d5	-0.027116219
39	0x3bc7d7cf	0.0060987244
40	0xbce2f3d3	-0.027704155
41	0xbd2ce72c	-0.04221265
42	0xbd8c1afb	-0.068410836
43	0xbcf5f241	-0.030022742
44	0xbcfd1fe2	-0.030898992
45	0x3d312012	0.043243475
46	0x3d552218	0.052034467
47	0xbd30e112	-0.043183394
48	0xbd043ba2	-0.032283433
49	0xbb582124	-0.0032978738
50	0x3cad1023	0.021125859
51	0xbc9b3d47	-0.018950118
52	0xbe07856c	-0.1323449
53	0x3daa136b	0.08304485
54	0xbd06f225	-0.03294577
55	0xbcea6906	-0.028614532
56	0x3c2029bf	0.009775578
57	0xbcf5f856	-0.030025642
58	0xbcd64238	-0.026154622
59	0xbcfbed8f	-0.030752925
60	0xbcf7386d	-0.030178273
61	0x3ce54e4f	0.027991442
62	0xbce49ff7	-0.027908308
63	0xbd1de8a6	-0.03855195
64	0x3de006c3	0.1093879
65	0x3d4efd00	0.05053425
66	0x3d7e8570	0.062138975
67	0x3ce18626	0.027529787
68	0x3cf105ec	0.02942177
69	0xbcf5ed44	-0.030020364
70	0x3d5a576b	0.053306025
71	0xbcf5e747	-0.030017508
72	0xbd062706	-0.03275206
73	0xbc7bb194	-0.015362162
74	0x3d796e4d	0.060896207
75	0xbcf584c1	-0.029970529
76	0x3c26f924	0.010191236
77	0xbceed4f4	-0.029154278
78	0xbcf5f646	-0.030024659
79	0xbd049375	-0.03236719
80	0xbcf5f36b	-0.030023297
81	0xbcf5f552	-0.030024204
82	0x3d5b5780	0.053550243
83	0x3d954f2c	0.072904915
84	0x3c075276	0.008259406
85	0xbcbd5ad2	-0.023114596
86	0xbcf5f743	-0.03002513
87	0xbcf5f960	-0.030026138
88	0xbcf5fa1c	-0.030026488
89	0xbcf5e32e	-0.030015554
90	0x3cdc369b	0.026881507
91	0xbcc004a5	-0.023439715
92	0xbcf5f784	-0.030025251
93	0x3d799c71	0.06094021
94	0xbd0093f6	-0.031391107
95	0x3da547d5	0.080703415
96	0xbccab506	-0.024744522
97	0xbd10de5e	-0.035368316
98	0xbd2b9019	-0.04188547
99	0x3cd4c333	0.025971984
100	0xbd0ac5ab	-0.033879917
101	0xbcfb575e	-0.030681308
102	0xbcf5f9fd	-0.03002643
103	0x3d132497	0.035923567
104	0xbdff1667	-0.12455445
105	0x3d0e529a	0.034746744
106	0xbc9d7a80	-0.019223452
107	0xbcf5f561	-0.030024232
108	0xbcc55ea4	-0.02409298
109	0xbcf5edc1	-0.030020596
110	0x3ae15d8b	0.0017194016
111	0x3db2baa3	0.087270044
112	0xbcc4533e	-0.023965474
113	0xbd49ce89	-0.049269233
114	0x00000000	0.0
115	0xbcc7d18b	-0.02439191
116	0xbcfdc665	-0.030978391
117	0x3d721141	0.059098486
118	0xbd047d62	-0.032346137
119	0x00000000	0.0
120	0x3dbfa4e6	0.09357624
121	0xbcf5f6cf	-0.030024914
122	0x3cf99875	0.030468205
123	0x3d5f3ada	0.054499485
124	0xbcff5143	-0.031166678
125	0x3cf60409	0.030031221
126	0xbd02559b	-0.03181992
127	0xbda54618	-0.0807001
128	0xbcf5f1e0	-0.030022562
129	0x3d48f570	0.049062192
130	0x3bdfed64	0.006833719
131	0x3da51e29	0.08062393
132	0x3ba3678a	0.004986708
133	0xbd08fcd0	-0.033444226
134	0xbd6ac003	-0.057312023
135	0xbe0947b8	-0.13406265
136	0x3d2082da	0.03918729
137	0x3d837cf3	0.064203165
138	0xbdb8cc36	-0.09023325
139	0xbcf41f12	-0.029799972
140	0xbd911f73	-0.070860766
141	0x3be83a7c	0.00708705
142	0xbda1b3a4	-0.07895592
143	0xbb2e2ce5	-0.0026577052
144	0xbcfcf64e	-0.030879166
145	0xbd3da9dc	-0.04630457
146	0x3d7e4cb9	0.062084887
147	0xbd02acf6	-0.03190323
148	0x3d5f5f0a	0.054533996
149	0x3cfb9a06	0.030713093
150	0xbcf5f679	-0.030024754
151	0xba52bdb7	-0.0008039134
152	0xbc857455	-0.016290823
153	0xbcb889c5	-0.022526631
154	0xbcf5f968	-0.030026153
155	0xbd7862b4	-0.060641006
156	0x3d865d1e	0.065607294
157	0x3b4d8d7c	0.003136485
158	0x3d17d025	0.037063736
159	0xbce33071	-0.02773306
160	0xbcf5f605	-0.030024538
161	0x3d233c9b	0.03985272
162	0xbcf5eca5	-0.030020067
163	0xbd862fce	-0.06552087
164	0xbcff7259	-0.031182455
165	0xbcf5943d	-0.029977912
166	0x3b58df64	0.0033092136
167	0x3c316201	0.010826589
168	0xbce0dabd	-0.027448053
169	0xbd95ca74	-0.073140055
170	0xbcf5fa20	-0.030026495
171	0xbc649f48	-0.013953991
172	0xbd08c638	-0.03339216
173	0x3db6fecf	0.0893532
174	0xbcf51b14	-0.029920138
175	0xbce3adb6	-0.027792793
176	0xbd154c68	-0.03644982
177	0xbcf5e3a0	-0.030015767
178	0x3cff97e1	0.031200351
179	0x3cb88061	0.022522153
180	0xbcf5f578	-0.030024275
181	0xbcd1a6e6	-0.025592279
182	0xbcfa5ed3	-0.030562794
183	0x3d12842f	0.03577059
184	0x3d43a4e0	0.04776466
185	0xbcfffcee	-0.031248536
186	0x3d33c43a	0.043888308
187	0xbcdc0eea	-0.02686258
188	0xbcc070e1	-0.023491325
189	0xbcf59a46	-0.02998079
190	0x3d0fdec4	0.035124555
191	0xbd8f3450	-0.069924
192	0x3daa4871	0.08314598
193	0x3d52be72	0.051451154
194	0xbd131d7b	-0.035916787
195	0xbcf594ac	-0.029978119
196	0x3c04be45	0.008102004
197	0xbcf73f73	-0.030181622
198	0xbcf5f613	-0.030024564
199	0xbcfcb6b1	-0.030848833
200	0xbd40884f	-0.047004994
201	0x3d07ee5a	0.033186294
202	0x3d6c0577	0.0576224
203	0xbcc812d5	-0.024423042
204	0xbcf5f706	-0.030025017
205	0xbc4d2edf	-0.012523382
206	0x3cecd3e2	0.028909627
207	0xbd22d734	-0.039756015
208	0x3dac0e0c	0.08401117
209	0x3cd5b474	0.026087023
210	0x3d7d125e	0.061785094
211	0x3d5f88d7	0.05457386
212	0x3c36f24b	0.011166166
213	0xbcfb49e1	-0.030674877
214	0xbdc67514	-0.096903
215	0x3cff5191	0.031166824
216	0xbd0376fc	-0.032095894
217	0x3d563e55	0.05230554
218	0xbcf49bb8	-0.029859409
219	0xbd00f33c	-0.031481966
220	0xbcf60035	-0.030029396
221	0x3d5e9af9	0.054347012
222	0xbcf5f374	-0.030023314
223	0xbcf5f140	-0.030022264
224	0xbcf5f75e	-0.03002518
225	0xbd0befdd	-0.0341643
226	0x3c3a4578	0.011369102
227	0x3db21a93	0.08696475
228	0x3d612ff9	0.05497739
229	0x3d079840	0.03310418
230	0xbdd885be	-0.10572384
231	0xbd5180d5	-0.051148254
232	0xbcf5f950	-0.030026108
233	0x3dd0bc3f	0.10192155
234	0xbcf5f750	-0.030025154
235	0x3c84336b	0.0161378
236	0xbcf5f8b4	-0.030025817
237	0x3d4aeb84	0.04954101
238	0xbdb95a7a	-0.0905046
239	0xbb18a5e3	-0.0023292236
240	0x3da7f90e	0.082018
241	0x3cbbb606	0.022913944
242	0x3d7665b6	0.060155593
243	0x3d8127e9	0.063064404
244	0xbcf5f915	-0.030025998
245	0xbd071cc7	-0.03298643
246	0xbc9b258d	-0.018938804
247	0x3d6f63bf	0.058444735
248	0x3c9fdd00	0.01951456
249	0xbd02bdea	-0.031919397
250	0x3da708e0	0.0815599
251	0xb9c7dd3c	-0.0003812107
252	0xbcf5f452	-0.030023728
253	0x3d84c707	0.06483274
254	0x3d0407ba	0.03223393
255	0xbdde7114	-0.10861412

sequential_6/dense_27/MatMul/ReadVariableOp/transpose f4 [3, 256]
0	0xbe04713e	-0.12933823
1	0xbed109b8	-0.40827727
2	0xbdec0a65	-0.1152542
3	0x3e0cbfae	0.13744995
4	0xbddcc779	-0.10780234
5	0xbde3c746	-0.11121993
6	0x3e6b4fdd	0.22979684
7	0xbce3bdab	-0.027800402
8	0xbcc4b815	-0.024013558
9	0xbe00f505	-0.12593468
10	0xbe3a74c1	-0.182086
11	0xbdf3a57a	-0.118967965
12	0x3d8b7d4a	0.06811006
13	0x3d4af355	0.049548466
14	0x3d88bd99	0.06676788
15	0x3c4fec0d	0.012690556
16	0xbdf31d0d	-0.11870775
17	0x3ce75434	0.028238393
18	0x3d28e58d	0.04123454
19	0x3cd769cd	0.026295567
20	0xbdc53a8c	-0.096303076
21	0xbd521bbb	-0.051295977
22	0x3de5c57b	0.11219307
23	0xbd122a72	-0.03568501
24	0x3f8efe43	1.1171345
25	0x3b9c1c32	0.0047641033
26	0xbed078b1	-0.4071708
27	0x3f0c2c73	0.54755324
28	0x3dbe75c6	0.09299807
29	0x3e5094b7	0.2036923
30	0x3d0e370d	0.03472047
31	0xbdd2b1e5	-0.10287837
32	0x3efd8529	0.49515656
33	0xbbfa9aba	-0.0076478394
34	0x3db6550a	0.08902939
35	0x3e1c0810	0.1523745
36	0xbd3a27c1	-0.04544807
37	0xbe08c99e	-0.13358161
38	0x3dbd7e79	0.09252638
39	0x3f4ded81	0.8044053
40	0xbcf48155	-0.029846827
41	0xbdb9d262	-0.090733305
42	0xbdc55b55	-0.09636561
43	0xbdb8b526	-0.09018926
44	0xbd7a8d8a	-0.06117014
45	0x3e052469	0.1300217
46	0x3e819d92	0.2531553
47	0xbd3e7e7e	-0.04650735
48	0xbd89eda7	-0.06734782
49	0x3da0027c	0.07812974
50	0xbf1cf21f	-0.6130695
51	0xbda6459f	-0.08118748
52	0x3c841b2b	0.016126236
53	0x3e255ec8	0.16149437
54	0xbd235d17	-0.0398837
55	0xbc9577fc	-0.01824569
56	0x3f1f93a3	0.6233465
57	0xbdc329ab	-0.09529432
58	0x3dd9a91b	0.106279574
59	0x3ad43f27	0.0016193137
60	0xbd6528dc	-0.05594717
61	0x3e76afe1	0.2409053
62	0x3e1a2acd	0.1505539
63	0xbd87b2bc	-0.06625888
64	0x3e350e1e	0.17681167
65	0x3de4b951	0.11168159
66	0xbda4ef8f	-0.08053505
67	0xbe420dc7	-0.18950568
68	0xbeab422d	-0.33448926
69	0x3df868e6	0.12129383
70	0x3d49ac0e	0.04923635
71	0xb974f5dd	-0.00023361245
72	0x3d98ee63	0.07467344
73	0xbd12c826	-0.035835408
74	0xbe0fddb7	-0.14049421
75	0xbddb2564	-0.10700491
76	0x3f925414	1.1431909
77	0xbdbd988c	-0.09257612
78	0x3cd65deb	0.02616783
79	0xbd0ba5e6	-0.03409376
80	0x3e1fcd71	0.15605713
81	0x39de5db4	0.00042412954
82	0x3d6ba8af	0.057533916
83	0x3d56d0a8	0.052445084
84	0x3dfdaaf3	0.123861216
85	0x3d8bbb55	0.0682284
86	0x3e052f67	0.13006364
87	0xbc9601a9	-0.018311338
88	0xbde760a0	-0.11297727
89	0x3dcb3892	0.09922899
90	0xbeba7b02	-0.36421973
91	0xbd3e064d	-0.046392728
92	0xbd8aede0	-0.06783652
93	0x3e28f38a	0.16499153
94	0x3dc64e87	0.09682947
95	0x3e4b0277	0.19825159
96	0x3dc667c5	0.09687761
97	0xbd75d9fb	-0.060022335
98	0xbd4931fd	-0.04911994
99	0xbee89910	-0.45429277
100	0xbd79adc3	-0.060956728
101	0xbd82facd	-0.06395493
102	0xbdb16f18	-0.086637676
103	0xbeb535db	-0.3539265
104	0x3e78ac8a	0.24284568
105	0xbee8be7a	-0.45457822
106	0x3e0144d8	0.12623918
107	0x3c64df2f	0.013969227
108	0x3cef1f1a	0.029189635
109	0xbdd060cc	-0.101747125
110	0x3f59a594	0.8501828
111	0xbe6890c2	-0.2271147
112	0x3c534219	0.012894177
113	0xbab7fead	-0.0014037691
114	0xbd82c0d0	-0.06384432
115	0xbd9dc5cd	-0.07703743
116	0xbd4c5c65	-0.0498928
117	0xbdcc6d22	-0.09981753
118	0xbdd8138d	-0.10550604
119	0xbd9a12b5	-0.07523099
120	0x3e208cab	0.1567866
121	0x3dfbe098	0.12298697
122	0xbeb29ba9	-0.34884384
123	0x3e5e80e0	0.2172885
124	0xbd87806c	-0.066162914
125	0xbeccb685	-0.39983
126	0xbde90c0e	-0.113792524
127	0xbdc86833	-0.097854994
128	0x3e16908b	0.14703576
129	0xbea69816	-0.32537907
130	0x3f7cca9f	0.98746675
131	0x3e644887	0.22293292
132	0x3f434b89	0.7628713
133	0xbdd00798	-0.101576984
134	0x3db6893e	0.089128956
135	0xbd3695ea	-0.044576563
136	0xbd1b052a	-0.03784672
137	0x3dd515be	0.104045376
138	0xbdbf4b1b	-0.09340497
139	0x3db08116	0.08618371
140	0x3c3f978d	0.011693847
141	0x3f7939c0	0.97353745
142	0xbc705f60	-0.014671177
143	0xbdef91da	-0.11697741
144	0x3d97efe3	0.07418802
145	0x3e03ea2b	0.12882297
146	0xbdc203d9	-0.0947339
147	0xbd4cc277	-0.049990144
148	0xbeae78b8	-0.34076476
149	0xbe6873b7	-0.22700392
150	0x3d209cec	0.039212152
151	0xbac2fac6	-0.0014875762
152	0x3d045ebc	0.03231691
153	0x3d9b9b37	0.07597964
154	0xbc9bc4a9	-0.019014673
155	0x3e09e1a5	0.13464983
156	0xbde4e6c3	-0.11176827
157	0x3f4f9a9c	0.8109529
158	0xbe9efc05	-0.3105165
159	0xbdaf7e52	-0.085690156
160	0xbdab2f1b	-0.08358594
161	0xbc77d22c	-0.0151257925
162	0xbb5a57ed	-0.0033316568
163	0x3db13d98	0.08654326
164	0xbd9e6694	-0.07734409
165	0xbd9bed84	-0.07613662
166	0x3f7663a3	0.96245784
167	0x3fc232ee	1.5171793
168	0x3a87f633	0.0010373056
169	0xbdec5873	-0.11540308
170	0xbdf908a6	-0.12159853
171	0x3dbe821b	0.093021594
172	0xb964dc12	-0.00021825757
173	0x3e8f0d23	0.2793971
174	0xbdf69b6b	-0.120413624
175	0x3e32be68	0.17455447
176	0xbdcd2498	-0.10016745
177	0x3dae62a2	0.085149065
178	0xbf08b229	-0.5339685
179	0xbe39101e	-0.18072554
180	0xbdb4ee7f	-0.08834552
181	0xbbc88f77	-0.006120618
182	0x3dbee174	0.093203455
183	0xbed4f65e	-0.41594213
184	0xbec6104f	-0.38684317
185	0x3dc82c1c	0.09774038
186	0x3e0cb999	0.13742675
187	0xbe09dea2	-0.13463834
188	0xbcbb8eb7	-0.0228952
189	0xbd797cba	-0.060909964
190	0xbe471f8e	-0.19445631
191	0x3d67ede4	0.056623355
192	0x3e33bf64	0.17553478
193	0x3e1d11b0	0.15338778
194	0xbda11d04	-0.078668624
195	0x3d1f93aa	0.038959183
196	0x3f923f35	1.1425539
197	0x3de01fc4	0.10943559
198	0xbdba60ff	-0.09100532
199	0x3df184fb	0.11792942
200	0x3cb69f73	0.022292828
201	0xbec27210	-0.37977648
202	0x3e80c209	0.25148037
203	0x3d9fb26c	0.07797703
204	0xbdd65e6e	-0.1046723
205	0xbc6411e9	-0.013920286
206	0xbe88ff64	-0.26757348
207	0xbe16eca7	-0.14738713
208	0x3dfc4b24	0.123190194
209	0xbf0a8bee	-0.54119766
210	0x3e15fdaa	0.14647546
211	0x3e243db9	0.1603917
212	0x3eedfe08	0.46482873
213	0xbb89c4f8	-0.0042043887
214	0xbc5e099e	-0.013552098
215	0xbe62215b	-0.22083037
216	0xbd1623b7	-0.036655154
217	0xbec3103f	-0.38098332
218	0x3dc23c03	0.094841026
219	0x3cea8130	0.028626055
220	0xbdae17d9	-0.08500642
221	0x3c4986e0	0.012300223
222	0xbd2a4e21	-0.041578416
223	0xbc7670d1	-0.015041546
224	0xbc19765a	-0.009366596
225	0xbde9ba80	-0.11412525
226	0x3fa9eb55	1.3274943
227	0xbd85a211	-0.06525052
228	0xbe39d278	-0.18146694
229	0x3df9262c	0.12165484
230	0x3e2b9ecc	0.16759795
231	0xbd54a162	-0.05191172
232	0xbdb41cfb	-0.0879459
233	0x3da6c6d2	0.08143391
234	0x3e04024d	0.12891503
235	0xbf378b38	-0.71696806
236	0xbdbf112b	-0.093294464
237	0xbe9341de	-0.2876119
238	0x3df5d6aa	0.120038345
239	0x3de2cc21	0.11074091
240	0x3e63f771	0.2226236
241	0xbf3172df	-0.69315904
242	0xbe466526	-0.19374523
243	0x3e036291	0.12830569
244	0xba937a29	-0.0011251617
245	0xbdd6fbe2	-0.104972616
246	0x3d2ee504	0.042698875
247	0xbd429285	-0.047503013
248	0xbea1fced	-0.3163828
249	0x3b78f9c5	0.003799067
250	0x3d89e4fc	0.067331284
251	0xbd5fc214	-0.054628447
252	0xbdebb569	-0.115092106
253	0xbc0931dc	-0.008373704
254	0xbe878b03	-0.26473245
255	0xbe209f51	-0.15685774

sequential_6/dense_27/MatMul_bias f4 [3]
0	0x3e17414c	0.14771003
1	0x3e11722c	0.1420371
2	0x3e0437a6	0.12911853
