PaddockTSLocal/VegFrac/fcModel_64x64x64.tflite (tflite, 37408 bytes, 8 tensors)

sequential_1/dense_4/MatMul/ReadVariableOp/transpose f4 [64, 5]
0.43984178 0.32372576 0.3539048 -0.49646214 -0.0808462 0.43536758 -0.47881994 0.1564833
0.33782235 -0.43896246 -0.29682654 0.16995808 -0.10805959 0.23170298 0.144001 -0.30660674
0.20874499 0.110045746 -0.16612585 0.54316187 -0.7196677 -0.2573699 0.5942541 -0.12735558
0.21559589 -0.112625554 -0.29467618 -0.075105116 0.15642954 -0.071850225 -0.3038942 -0.04101231
0.06553643 0.17195545 -0.102065936 0.17952079 0.22371596 -0.33755028 0.29877904 -0.3203303
0.19172065 -0.4855201 0.52282333 -0.42320564 0.05816501 -0.028905278 -0.14211932 -0.2830373
0.10611964 0.10874444 -0.18552215 -0.48322055 0.5322558 -0.37867197 0.075992934 -0.70904976
0.5833611 -0.29887977 -0.18762384 0.1800173 0.043361615 -0.14704974 -0.055706076 -0.007114983
0.10796103 -0.013874149 0.7969404 -0.552206 -0.047020644 0.09923337 0.13414307 0.37151864
0.10211181 0.13883454 -0.46595117 0.121461794 -0.12273508 -0.13655195 -0.08874299 -0.0057678567
-0.1900918 -0.8558566 0.02759295 -0.10531486 0.41052142 -0.18616849 0.026443671 -0.18273264
0.10668774 -0.20121217 0.71579814 -0.6091067 0.1633632 0.26499438 -0.14040042 -0.20804454
-0.6254019 -0.023742285 0.37531406 0.013760173 -0.10977504 -0.021393696 -0.29778174 0.1919019
-0.13708769 -0.11552851 -0.009576384 -0.28449848 -0.09387459 0.16640657 -0.5101746 0.4018404
0.06521111 -0.15125011 0.2201507 -0.06036283 0.008305822 -0.21879251 0.23877192 -0.21327293
0.104298696 -0.1871011 -0.27656516 -0.08416641 0.18037465 -0.34612966 0.15456131 -0.080031976
0.30421582 -0.42257518 0.17295536 0.15261686 -0.17257443 -0.19557863 0.005284163 -0.27436796
0.33527258 0.13273449 -0.06047944 0.41784078 -0.2705181 -0.15983678 0.043299727 -0.12698188
0.001925529 -0.90619886 0.15116264 -0.14922166 0.1664849 0.32552886 -0.0077271573 -0.7636181
0.56038386 0.2589873 -0.18867633 0.17722332 0.043317184 -0.19418332 -0.28826687 0.17370185
0.82544255 -0.23060432 0.16182655 -0.07083006 -0.06279597 -0.5094869 0.6349364 -0.1280318
-0.34807983 0.44677714 -0.353398 0.419947 -0.23716822 -0.059848342 0.21097192 0.72607887
-0.62048346 -0.05349658 0.10990481 0.26994172 0.015256748 -0.042097054 0.085470915 0.09738764
-0.26746657 0.14235944 -0.16949068 -0.028865196 -0.024575138 -0.054870408 0.34484878 0.23160009
0.0067774192 0.26219648 0.22474386 -0.013678741 -0.1475477 -0.06546283 -0.17647266 0.030925896
-0.3321978 0.31910235 0.07723113 0.28627366 -0.56676626 -0.22983621 -0.17734025 0.10191594
0.12926497 -0.16809003 -0.32752305 0.5224246 0.1939217 -0.33386153 0.34290263 -0.24989763
-0.14342079 -0.11535765 -0.13404001 0.24044847 -0.33832362 0.17045666 -0.07448882 0.33984268
-0.21497086 -0.1509244 0.40220028 -0.022997491 -0.16617884 0.30070123 0.26593697 0.28619662
0.153163 0.1433643 -0.27403542 0.46396083 -0.31404155 0.0921031 -0.21675774 -0.7941355
0.04066799 0.00067800353 -0.11485584 -0.18582503 0.059775025 -0.104502134 -0.14314294 -0.20357111
0.05037101 0.17492206 -0.8125638 -0.072386056 0.24398336 0.27552575 0.3363417 0.10179355
00000000: f132 e13e 62bf a53e 0333 b53e 4930 febe
00000010: b192 a5bd 80e8 de3e e327 f5be 283d 203e
00000020: 0df7 ac3e b0bf e0be a6f9 97be 7e09 2e3e
00000030: 594e ddbd 8c43 6d3e 0075 133e 8ffb 9cbe
00000040: 3fc1 553e aa5f e13d e51c 2abe a80c 0b3f
00000050: 243c 38bf fdc5 83be 0921 183f 8069 02be
00000060: 2bc5 5c3e 3aa8 e6bd ccdf 96be b6d0 99bd
00000070: 112f 203e 3626 93bd 0598 9bbe 86fc 27bd
00000080: f737 863d 1715 303e f207 d1bd 4cd4 373e
00000090: cc15 653e 64d3 acbe 91f9 983e 5502 a4be
000000a0: 6b52 443e 1796 f8be c0d7 053f 69ae d8be
000000b0: 6f3e 6e3d c3ca ecbc ba87 11be 44ea 90be
000000c0: 4155 d93d 68b5 de3d 85f9 3dbe af68 f7be
000000d0: eb41 083f 4be1 c1be 2fa2 9b3d 4984 35bf
000000e0: 2757 153f c506 99be 7720 40be 7556 383e
000000f0: f39b 313d 3594 16be 0e2c 64bd ce24 e9bb
00000100: ac1a dd3d 6650 63bc 4904 4c3f 5f5d 0dbf
00000110: b898 40bd dd3a cb3d cd5c 093e b137 be3e
00000120: ff1f d13d a42a 0e3e 2791 eebe f6c0 f83d
00000130: 885c fbbd 46d4 0bbe e2be b5bd 4a00 bdbb
00000140: 6da7 42be 6b19 5bbf 9c0a e23c 51af d7bd
00000150: dd2f d23e f4a2 3ebe 66a0 d83c 441e 3bbe
00000160: 1a7f da3d 900a 4ebe 8c3e 373f 6bee 1bbf
00000170: af48 273e 58ad 873e 21c5 0fbe a109 55be
00000180: 571a 20bf 2e7f c2bc 2a29 c03e 5972 613c
00000190: bcd1 e0bd d541 afbc d976 98be ef81 443e
000001a0: b760 0cbe 369a ecbd 44e6 1cbc c9a9 91be
000001b0: 5241 c0bd 7c66 2a3e cd9a 02bf 06be cd3e
000001c0: 678d 853d 4fe1 1abe 2f6f 613e 043f 77bd
000001d0: 2415 083c 250b 60be a080 743e 3864 5abe
000001e0: 8e9a d53d 6e97 3fbe f399 8dbe 705f acbd
000001f0: 22b4 383e e837 b1be 5245 1e3e cee7 a3bd
00000200: 2dc2 9b3e c65b d8be 361b 313e 9847 1c3e
00000210: 5ab7 30be c445 48be c626 ad3b f579 8cbe
00000220: d9a8 ab3e 8deb 073e 4ab9 77bd 3aef d53e
00000230: 5981 8abe 41ac 23be 0e5b 313d 8a07 02be
00000240: 0862 fc3a a6fc 67bf 61ca 1a3e 90cd 18be
00000250: 057b 2a3e b8ab a63e 1834 fdbb 7a7c 43bf
00000260: 5175 0f3f fc99 843e 5e34 41be 087a 353e
00000270: 5c6d 313d fed7 46be b797 93be e6de 313e
00000280: 3450 533f 8a23 6cbe dcb5 253e 5a0f 91bd
00000290: 2c9b 80bd bc6d 02bf 318b 223f c51a 03be
000002a0: 8537 b2be f9bf e43e 95f0 b4be 4b03 d73e
000002b0: 3adc 72be 8923 75bd 0609 583e 4ee0 393f
000002c0: 01d8 1ebf 3b1f 5bbd c615 e13d cd35 8a3e
000002d0: 70f7 793c f66d 2cbd 600b af3d 2c73 c73d
000002e0: 61f1 88be acc6 113e f78e 2dbe b476 ecbc
000002f0: cd51 c9bc cbbf 60bd 0590 b03e 9328 6d3e
00000300: 1d15 de3b 9e3e 863e 4123 663e cc1c 60bc
00000310: bf16 17be 6011 86bd 40b5 34be 4e58 fd3c
00000320: d415 aabe 6261 a33e 5b2b 9e3d 7692 923e
00000330: 9817 11bf 2f5a 6bbe af98 35be 4eb9 d03d
00000340: 095e 043e cb1f 2cbe 1ab1 a7be 9ebd 053f
00000350: 6993 463e e6ef aabe ef90 af3e 2ae5 7fbe
00000360: e6dc 12be a240 ecbd c941 09be 2038 763e
00000370: c138 adbe 318c 2e3e 988d 98bd dcff ad3e
00000380: 5221 5cbe ed8b 1abe 32ed cd3e 3c65 bcbc
00000390: c92a 2abe 83f5 993e e428 883e 5d88 923e
000003a0: c3d6 1c3e 17ce 123e 5f4e 8cbe 468c ed3e
000003b0: 0eca a0be 8da0 bc3d bef5 5dbe 774c 4bbf
000003c0: 7a93 263d 0cbc 313a 8a39 ebbd eb48 3ebe
000003d0: a8d6 743d 3705 d6bd 1094 12be f274 50be
000003e0: d551 4e3d c51e 333e 2e04 50bf 243f 94bd
000003f0: c6d6 793e b611 8d3e fb34 ac3e 2379 d03d

sequential_1/dense_4/MatMul_bias f4 [64]
0.018410321 0.03767689 -0.051669013 -0.07246685 -0.010507856 -0.027888542 -0.06406103 0.038938724
0.06626604 -0.034046013 0.08939379 0.11661978 -0.01562385 -0.0175721 -0.026518833 0.0
0.11534521 0.0 -0.052729953 0.04429663 -0.01185431 0.0 0.0029734608 0.0
0.0 0.077086076 0.0 -0.09935096 0.0 0.038820177 -0.012056954 0.0
-0.017364245 0.05874879 0.07094907 -0.022507723 -0.033695124 -0.029824391 -0.15611653 0.0
0.015608575 -0.049704954 -0.017589418 0.0 -0.007846192 0.006147281 -0.080802515 0.07994882
0.0 -0.030371545 -0.06702593 -0.030411417 0.010758602 -0.06314241 -0.01841678 0.0
0.0 -0.07235765 -0.0049586534 -0.05570403 -0.056059808 -0.021167746 0.018031344 -0.034744773
00000000: 3ed1 963c 1553 1a3d e3a2 53bd 8069 94bd
00000010: 2429 2cbc 8376 e4bc 6e32 83bd 367e 1f3d
00000020: 7db6 873d d573 0bbd 1714 b73d 5ad6 ee3d
00000030: 2dfb 7fbc 5df3 8fbc 063e d9bc 0000 0000
00000040: 1c3a ec3d 0000 0000 5dfb 57bd 6270 353d
00000050: 9438 42bc 0000 0000 65de 423b 0000 0000
00000060: 0000 0000 4edf 9d3d 0000 0000 8478 cbbd
00000070: 0000 0000 e801 1f3d 888a 45bc 0000 0000
00000080: 763f 8ebc 92a2 703d bf4d 913d 1e62 b8bc
00000090: e603 0abd 4852 f4bc 03dd 1fbe 0000 0000
000000a0: 1cbb 7f3c 6c97 4bbd af17 90bc 0000 0000
000000b0: 518d 00bc 216f c93b ca7b a5bd 35bc a33d
000000c0: 0000 0000 bfcd f8bc e444 89bd 5d21 f9bc
000000d0: d944 303c cf50 81bd c9de 96bc 0000 0000
000000e0: 0000 0000 3f30 94bd 337c a2bb e929 64bd
000000f0: f89e 65bd fb67 adbc 78b6 933c 8950 0ebd

sequential_1/dense_5/MatMul/ReadVariableOp/transpose f4 [64, 64]
-0.16155082 0.0593931 -0.0011074042 0.050295558 0.20400013 -0.027064785 0.028533088 -0.0790446
-0.05900686 0.049798205 0.055633076 -0.07004746 0.038220547 -0.5925898 0.10995773 -0.0023307528
0.05431666 -0.03665685 -0.048378948 0.03052752 0.0059614806 -0.021444505 0.009574081 0.01073051
0.0012086922 0.021393301 0.02435627 -0.032962494 -0.035566386 0.028517118 0.18765952 -0.010762575
0.015893765 -0.09253806 -0.07328172 -0.0066855447 0.015391392 -0.027705593 -0.05932881 -0.045374904
0.058480263 0.039203685 0.003133681 -0.013542622 -0.012112737 -0.02871314 0.02054492 0.5825278
-0.008635509 -0.025250614 0.032124385 0.042676575 0.008951775 -0.099115916 0.07057331 0.028508324
-0.04694934 -0.016409047 0.10091332 0.0017170982 -0.061544895 -0.14372034 -0.04819836 -0.25725257
0.12426632 -0.12793593 -0.00395689 -0.025229499 -0.11175034 0.0013884006 0.0006034838 0.01620713
0.030745365 0.00092444126 -0.0121716745 0.10564218 0.0067732497 0.6903565 0.101807944 -0.0014174292
-0.09262121 0.0007571491 -0.26073986 -0.17026505 -0.0018449187 -0.0048838803 0.046742298 -0.0018942388
-0.003243434 -0.07722704 0.003511051 0.028641568 0.0044427556 -0.011133498 -0.19298789 -0.0054373266
-0.02642209 0.20842466 0.098580204 -0.008104802 0.004633592 -0.0038056718 0.08943728 -0.0017410245
0.106611885 -0.0006719393 0.10811075 0.0027206517 -0.15652345 0.07289002 -0.29222015 0.05874123
-0.0012901451 0.00016669814 -0.1719515 0.0065812995 -0.13016842 0.04769179 -0.0020120805 0.0038927568
0.0018008276 -0.058376282 0.0025163402 0.0007653341 0.022588596 0.16241585 0.11852571 -0.081525214
-0.043789376 0.054120656 -0.020386524 -0.021560121 0.15414584 -0.00021508972 0.00017009531 -0.054571535
-0.056688342 -0.00048971793 0.010126168 0.03577259 0.00013552475 -0.81252605 0.3843047 -0.00021531626
0.09257056 -0.00015568649 -0.12961136 0.005566431 -0.00024926037 0.0003476163 -0.015288412 0.00011116048
-0.00019609694 0.04607892 0.00035809042 -0.039784677 0.00037778722 0.021505404 0.067582324 -0.00040618697
-0.048069194 -0.041567173 -0.02364048 -0.07084013 -0.00013245351 0.00023323011 -0.07028397 8.029573e-05
0.082077675 0.00036095615 -0.021050654 -0.0005084267 -0.013005034 -0.038840808 0.03774299 0.23885433
0.0004604247 5.313877e-05 -0.009697433 0.00014537829 0.04516609 -0.06270351 -0.018268066 -0.00016941533
-0.0005110007 -0.06808465 0.03154159 -2.1651413e-05 -0.008605713 -0.115063705 -0.0039710198 0.1158879
0.09209992 -0.089567006 0.029592145 0.06050263 0.03061689 -0.0007079447 0.00054453535 0.0143511575
0.093543105 -0.00029811633 0.07062976 0.08362997 0.0007309529 0.23256591 0.10970283 -0.00034460533
-0.016019266 0.00060879625 -0.16886945 -0.042792413 0.0004428913 -0.0005071198 0.05143204 0.0007889583
-0.0005569255 0.016291505 0.0004488485 0.037470967 0.0005618521 0.06352003 -0.07092753 -0.0005298817
-0.050997134 0.060795255 0.033973005 -0.035590887 0.0005849422 0.0004444502 0.025602905 -0.00067959796
-0.52959937 8.480593e-05 0.05213554 0.0006202883 0.112484105 0.026423661 0.0796876 0.40658695
0.00036359337 0.00031847917 0.054096926 0.0008800981 -0.032577526 0.013825778 -0.031021137 0.0006876315
0.00070986984 0.006644685 0.050042033 -7.6519354e-05 -0.47382063 -0.12159467 0.051890995 0.34599748
00000000: 946d 25be 2e46 733d 5226 91ba b702 4e3d
00000010: 69e5 503e f8b6 ddbc 39be e93c 23e2 a1bd
00000020: 2db1 71bd 34f9 4b3d 82df 633d 0b75 8fbd
00000030: 268d 1c3d f7b3 17bf 8531 e13d 8bbf 18bb
00000040: 257b 5e3d 7e25 16bd 0129 46bd da14 fa3c
00000050: 8658 c33b 63ac afbc 9bdc 1c3c 05cf 2f3c
00000060: fb6c 9e3a 0141 af3c cd86 c73c ae03 07bd
00000070: 0fae 11bd bb9c e93c d129 403e 8355 30bc
00000080: a433 823c 9884 bdbd ba14 96bd 6a12 dbbb
00000090: 2d2c 7c3c d7f6 e2bc c402 73bd 09db 39bd
000000a0: 0089 6f3d 0b94 203d 715e 4d3b e0e1 5dbc
000000b0: 8074 46bc d237 ebbc d24d a83c 8b20 153f
000000c0: f37b 0dbc 60da cebc dc94 033d a2cd 2e3d
000000d0: 77aa 123c 49fd cabd bd88 903d 4a8a e93c
000000e0: f34d 40bd 446c 86bc a5ab ce3d 4110 e13a
000000f0: 8016 7cbd 6d2b 13be a56b 45bd 9cb6 83be
00000100: 577f fe3d a301 03be cda8 81bb 18ae cebc
00000110: 5ddd e4bd fefa b53a 1d33 1e3a d1c4 843c
00000120: b4dd fb3c 3456 723a b46b 47bc ed5a d83d
00000130: 23f2 dd3b 34bb 303f af80 d03d 08c9 b9ba
00000140: 30b0 bdbd 6a7b 463a b27f 85be f659 2ebe
00000150: 33d1 f1ba f508 a0bb da74 3f3d 1b48 f8ba
00000160: cb8f 54bb 3629 9ebd a919 663b b9a1 ea3c
00000170: 8994 913b 4669 36bc 9e9e 45be 9a2b b2bb
00000180: 2473 d8bc 466d 553e 6be4 c93d 01ca 04bc
00000190: 63d5 973b 9468 79bb e52a b73d 1733 e4ba
000001a0: 5557 da3d 1525 30ba 2b69 dd3d f64c 323b
000001b0: af47 20be 5d47 953d e19d 95be a59a 703d
000001c0: 161a a9ba b1cb 2e39 0e14 30be f1a7 d73b
000001d0: df4a 05be 7758 433d 1cdd 03bb 9f1d 7f3b
000001e0: bf09 ec3a f81b 6fbd 2fe9 243b b4a0 483a
000001f0: b80b b93c 5750 263e 9cbd f23d b1f6 a6bd
00000200: 7d5c 33bd 9fad 5d3d a401 a7bc da9e b0bc
00000210: 68d8 1d3e b589 61b9 9d5b 3239 6786 5fbd
00000220: 0932 68bd 6a60 00ba 3ae8 253c 4886 123d
00000230: a61b 0e39 b501 50bf 96c3 c43e 85c6 61b9
00000240: a295 bd3d c63f 23b9 d7b8 04be 9c66 b63b
00000250: 29af 82b9 4540 b639 3f7c 7abc d41e e938
00000260: 5f9f 4db9 40bd 3c3d 15be bb39 42f5 22bd
00000270: be11 c639 1a2c b03c 9a68 8a3d 7ef5 d4b9
00000280: 34e4 44bd 5742 2abd aea9 c1bc a114 91bd
00000290: 38e3 0ab9 3b8f 7439 0bf1 8fbd 7164 a838
000002a0: 5718 a83d b73e bd39 6c72 acbc f047 05ba
000002b0: 1113 55bc 8a17 1fbd 6598 1a3d 3b96 743e
000002c0: 2865 f139 52e1 5e38 fbe1 1ebc b070 1839
000002d0: 1400 393d b36a 80bd e9a6 95bc 15a5 31b9
000002e0: adf4 05ba f76f 8bbd c131 013d 0ea0 b5b7
000002f0: fafe 0cbc 85a6 ebbd 541f 82bb a356 ed3d
00000300: e29e bc3d e86e b7bd 3a6b f23c 9bd1 773d
00000310: 46d0 fa3c 5d95 39ba 26bf 0e3a 1e21 6b3c
00000320: 8793 bf3d 7f4c 9cb9 56a6 903d 3146 ab3d
00000330: 6b9d 3f3a c225 6e3e e1ab e03d 25ac b4b9
00000340: d63a 83bc a097 1f3a 1dec 2cbe 1947 2fbd
00000350: dd33 e839 3cf0 04ba 67aa 523d 18d2 4e3a
00000360: a3fe 11ba c375 853c 6d53 eb39 287b 193d
00000370: 4249 133a ca16 823d 7442 91bd c2e7 0aba
00000380: 5fe2 50bd 7204 793d 4727 0b3d c0c7 11bd
00000390: ce56 193a 1905 e939 2fbd d13c 0c27 32ba
000003a0: d393 07bf d6d9 b138 138c 553d d89a 223a
000003b0: 115e e63d 6f76 d83c 4133 a33d 2a2c d03e
000003c0: ada0 be39 8df9 a639 bd94 5d3d 62b6 663a
000003d0: 0370 05bd 8485 623c 0a20 febc 2b42 343a
000003e0: 8f16 3a3a a8bb d93b e0f8 4c3d 0479 a0b8
000003f0: 9e98 f2be a006 f9bd a78b 543d 9526 b13e

sequential_1/dense_5/MatMul_bias f4 [64]
0.06022515 0.06556716 0.06455127 -0.017523212 0.038658593 -0.030882454 -0.028647685 -0.03016795
-0.035434328 -0.03035299 -0.08329108 0.044118214 -0.0722435 -0.038008634 0.046475526 0.034468
-0.052354496 0.03431578 -0.029572988 0.10491236 0.07324158 0.03076744 0.07113537 -0.030121686
-0.036749452 -0.024772424 -0.050223842 0.06493325 -0.19311917 -0.15129182 0.02493716 -0.0054451753
-0.030475244 0.007820047 0.0061562667 -0.00862049 -0.030034857 -0.032556128 -0.16813877 0.046829868
-0.066443615 -0.030168174 0.0008131439 0.021986464 -0.0026472006 0.061298374 0.052651223 0.077871755
-0.04000111 0.08080261 -0.030009493 -0.050455112 -0.012446358 -0.046432942 0.009928724 -0.043894555
-0.084415525 -0.003927784 -0.03002189 -0.018825833 -0.022853885 -0.04433919 -0.036837846 0.026152022
00000000: a6ae 763d 1348 863d 7533 843d d78c 8fbc
00000010: 7958 1e3d 33fd fcbc 8dae eabc c722 f7bc
00000020: 9623 11bd d5a6 f8bc 8494 aabd 4db5 343d
00000030: 66f4 93bd f1ae 1bbd 1f5d 3e3d 512e 0d3d
00000040: ab71 56bd b48e 0c3d 0d43 f2bc 4bdc d63d
00000050: aeff 953d 000c fc3c 6caf 913d c1c1 f6bc
00000060: 9886 16bd 8aef cabc 84b7 4dbd b9fb 843d
00000070: 08c1 45be 3eec 1abe 0449 cc3c 716d b2bb
00000080: 38a7 f9bc a81f 003c 82ba c93b f53c 0dbc
00000090: a90b f6bc 9359 05bd 922c 2cbe add0 3f3d
000000a0: 9713 88bd 3f23 f7bc 2a29 553a f51c b43c
000000b0: a87c 2dbb 0114 7b3d cfa8 573d 3a7b 9f3d
000000c0: 34d8 23bd d77b a53d 78d6 f5bc 05aa 4ebd
000000d0: cfeb 4bbc 7830 3ebd 16ac 223c c7ca 33bd
000000e0: 0ce2 acbd a4b4 80bb 77f0 f5bc a238 9abc
000000f0: 1238 bbbc 039d 35bd 48e3 16bd c43c d63c

sequential_1/dense_6/MatMul/ReadVariableOp/transpose f4 [64, 64]
0.045032762 -0.065066434 0.060073294 -0.1975567 -0.03353091 -0.0008668494 0.00095624424 -0.0003852447
0.0013070265 -0.00036656082 0.0003257256 -0.041043665 -0.0008058309 -0.0013514805 0.042835057 -0.029350989
-0.0054858304 -0.036981076 0.00027152523 0.036367875 0.04750772 0.18073614 0.048140436 -0.00036394372
0.029106047 -0.000977031 -0.00084434776 -0.0857278 -0.026821703 -0.053302288 0.41032198 -6.285612e-05
-5.587483e-05 -0.31611523 -0.059202675 -0.036265146 0.001996122 0.0015840281 -0.0003275391 0.038531568
-0.0043135914 0.0017562652 -0.010978562 0.18868895 -0.07590415 0.0070439684 -0.14930235 -0.026295964
0.0008309359 -0.058236536 -0.0011510759 0.00010652808 -0.32093456 -5.954709e-05 -0.10420696 0.0014820079
-0.0049855877 0.0014454351 0.0018304246 -0.0010222805 -0.0016097547 0.0005852972 0.00088818173 -0.6613904
0.038600985 -0.14103316 0.027936129 0.3040281 0.1550171 -4.4433087e-05 -6.22432e-05 -1.0707574e-05
5.3809927e-05 1.1801211e-05 -5.5618482e-05 -0.06646635 3.351168e-05 -4.2953925e-05 0.039727364 0.05050731
-0.0052929022 -0.05790975 -1.1751238e-05 0.019535229 0.025367271 -0.65264857 0.0055231764 3.7621154e-05
0.0038079473 -8.313148e-06 -3.6648806e-05 -0.16979182 -0.008903503 0.03735764 -0.3478824 -1.8320432e-05
-4.429343e-05 0.09795613 -0.08855564 0.053889584 2.0899872e-05 4.001298e-05 0.0017716632 0.041287724
-0.0030817653 1.7370403e-05 0.03807285 -0.21444152 -0.104808934 0.02793222 -0.16261725 -0.10973431
-1.0872143e-05 -0.21183246 -3.399446e-05 4.0583483e-05 0.080376394 0.00012755905 0.037045944 -0.00033722547
0.0013933064 -7.324859e-05 2.4770914e-05 2.6134845e-05 3.5213605e-05 -9.726115e-06 -7.481741e-06 0.31408238
-0.07407676 0.029289084 -0.082329966 0.048388906 0.029635306 -9.507535e-06 2.8704542e-05 -3.0297186e-05
-1.3916193e-05 2.6672575e-05 -4.0916533e-05 0.019422567 -9.037731e-06 -2.5856913e-05 -0.10080067 0.030000579
0.00021442655 0.019839015 1.1199009e-05 -0.059952095 -0.0684323 -0.2816711 -0.099017955 3.446865e-05
0.00066669204 4.5503853e-06 -2.6708069e-05 0.0485393 0.0074719195 0.019261505 -0.6176458 -5.6420736e-06
4.349597e-06 0.41537765 0.030054618 0.21923013 3.690995e-05 1.166263e-06 -3.6417125e-05 -0.057839166
0.0006295035 1.3340923e-05 -0.0012134471 -0.36777556 0.029045636 -0.021595696 0.15297712 0.013672661
-8.325691e-06 0.019343251 -2.8597526e-05 -2.23161e-05 0.08879167 -0.00018054673 0.029818181 4.0966468e-05
0.00013886174 -6.914898e-05 -4.601578e-05 -5.255551e-06 -3.2502987e-05 -3.501225e-05 -1.48522e-06 0.30980444
-0.03537655 0.035905924 -0.09454664 0.11405736 0.321012 0.035954632 0.038298476 0.03370572
0.0031713564 -0.020841667 -0.037330955 0.015958307 0.027180968 0.0037774926 0.008398512 0.05019566
0.030944524 0.028277816 -0.034018707 -0.028596768 -0.0730272 -0.2274567 -0.08862652 -0.0190468
0.023735983 -0.0068852697 -0.023209073 0.08800338 -0.036709014 0.053574838 -0.5425537 0.042378474
0.036935363 0.14308454 0.0026181827 0.06263765 -0.0038453 0.04783795 -0.024024684 -0.053518087
0.014806833 0.031997178 0.021381134 -0.22396672 0.085460894 0.06307675 0.19152322 0.019866932
-0.03605262 0.04497585 0.025002424 -0.010657854 0.23235533 -0.02235946 0.025017437 -0.025240164
0.012976817 -0.0055518043 -0.02154809 -0.041467644 -0.0054655964 0.0048783044 -0.041631 0.5377027
00000000: 4674 383d 8d41 85bd 6a0f 763d 4e4c 4abe
00000010: b557 09bd 473d 63ba 77ac 7a3a abfa c9b9
00000020: 8850 ab3a f62e c0b9 26c6 aa39 671d 28bd
00000030: 653e 53ba 2924 b1ba d073 2f3d 7c71 f0bc
00000040: 7bc2 b3bb 7879 17bd 805b 8e39 7bf6 143d
00000050: 7497 423d e512 393e e82e 453d b3cf beb9
00000060: ce6f ee3c b80f 80ba 3857 5dba 0f92 afbd
00000070: 30b9 dbbc 8053 5abd b915 d23e 9fd1 83b8
00000080: 245b 6ab8 dbd9 a1be 817e 72bd c38a 14bd
00000090: 5fd1 023b 2a9f cf3a 8eb9 abb9 47d3 1d3d
000000a0: 0759 8dbb 7b32 e63a 6ddf 33bc ad37 413e
000000b0: a373 9bbd 17d1 e63b b7e2 18be a26a d7bc
000000c0: 2ad3 593a 6f89 6ebd b3df 96ba d467 df38
000000d0: 8951 a4be 33c2 79b8 756a d5bd ef3f c23a
000000e0: 245e a3bb c174 bd3a dcea ef3a 0bfe 85ba
000000f0: 68fe d2ba a16e 193a ded4 683a e250 29bf
00000100: 111c 1e3d ff6a 10be 4fda e43c 92a9 9b3e
00000110: cdbc 1e3e aa5d 3ab8 9088 82b8 aea4 33b7
00000120: f8b1 6138 d1fd 4537 e447 69b8 821f 88bd
00000130: e48e 0c38 6d29 34b8 29b9 223d c1e0 4e3d
00000140: 1570 adbb c632 6dbd 2f27 45b7 5808 a03c
00000150: 06cf cf3c fa13 27bf c3fb b43b 68cb 1d38
00000160: c18e 793b b378 0bb7 5bb7 19b8 e8dd 2dbe
00000170: 00e0 11bc 5304 193d a41d b2be d4ae 99b7
00000180: b5c7 39b8 399d c83d a95c b5bd 53bb 5c3d
00000190: 2252 af37 9cd3 2738 2737 e83a 511d 293d
000001a0: 71f7 49bb a8b6 9137 47f2 1b3d 8f96 5bbe
000001b0: 11a6 d6bd 1cd2 e43c 2385 26be 62bc e0bd
000001c0: 8067 36b7 9cea 58be 4695 0eb8 2f38 2a38
000001d0: 619c a43d 5fc1 0539 7dbd 173d a3cd b0b9
000001e0: 9b9f b63a 0a9d 99b8 22cb cf37 273c db37
000001f0: 52b2 1338 592d 23b7 aa0b fbb6 68cf a03e
00000200: 8eb5 97bd a9ef ef3c 9d9c a8bd 7233 463d
00000210: bec5 f23c 8d82 1fb7 89ca f037 b626 feb7
00000220: 9879 69b7 ebbe df37 cb9d 2bb8 131c 9f3c
00000230: c2a0 17b7 4ce7 d8b7 9570 cebd c6c3 f53c
00000240: b0d7 6039 6e85 a23c 61e3 3b37 5490 75bd
00000250: 3c26 8cbd 3237 90be edc9 cabd 6e92 1038
00000260: f2c4 2e3a 83af 9836 240b e0b7 25d1 463d
00000270: 01d7 f43b 4eca 9d3c 091e 1ebf 0b51 bdb6
00000280: c1f2 9136 61ac d43e 1a35 f63c dd7d 603e
00000290: c2cf 1a38 7e88 9c35 97be 18b8 c3e8 6cbd
000002a0: 4405 253a d4d2 5f37 870c 9fba 144d bcbe
000002b0: 1df1 ed3c 75e9 b0bc 09a6 1c3e 4c03 603c
000002c0: 92ae 0bb7 bd75 9e3c b8e4 efb7 7633 bbb7
000002d0: 68d8 b53d 2551 3db9 4245 f43c 69d3 2b38
000002e0: 6a9b 1139 1304 91b8 1101 41b8 d758 b0b6
000002f0: d153 08b8 1eda 12b8 c557 c7b5 b09e 9e3e
00000300: 00e7 10bd 1712 133d aba1 c1bd e896 e93d
00000310: af5b a43e 2a45 133d ddde 1c3d 020f 0a3d
00000320: 88d6 4f3b 25bc aabc 58e8 18bd ffba 823c
00000330: 9faa de3c cf8f 773b ea99 093c f799 4d3d
00000340: 5f7f fd3c e1a6 e73c 3357 0bbd c543 eabc
00000350: 498f 95bd 69ea 68be d281 b5bd 0908 9cbc
00000360: f771 c23c d49d e1bb f420 bebc 1e3b b43d
00000370: 315c 16bd 4a71 5b3d cde4 0abf 0d95 2d3d
00000380: 8949 173d c184 123e d195 2b3b 2b48 803d
00000390: 6e01 7cbb baf1 433d 6acf c4bc c835 5bbd
000003a0: 5c98 723c 790f 033d 7d27 af3c 8857 65be
000003b0: 1f06 af3d 622e 813d aa1e 443e fabf a23c
000003c0: e9ab 13bd 9938 383d e2d1 cc3c 489e 2ebc
000003d0: 8eee 6d3e 302b b7bc 5ef1 cc3c 76c4 cebc
000003e0: b79c 543c e9eb b5bb 9f85 b0bc fad9 29bd
000003f0: bf18 b3bb 2fda 9f3b 4485 2abd e2a6 093f

sequential_1/dense_6/MatMul_bias f4 [64]
0.082727246 0.043340012 0.029399876 0.089309424 -0.030518448 0.07847986 0.05993404 0.0026742204
0.022578262 -0.030026628 -0.047325265 0.034756053 -0.068787575 -0.03886159 0.14658627 -0.02576397
-0.037938006 -0.030688949 -0.030025823 0.023023305 -0.03323935 0.11046964 0.0949127 0.0
0.16798234 0.038719982 -0.030654302 0.07578453 0.11065467 0.0030912661 0.036636993 -0.006767551
0.07246332 -0.12604356 0.04077441 -0.030881543 0.026015105 0.08757106 0.17287141 -0.03316343
-0.030538825 -0.033222605 -0.030026697 0.07019201 -0.039019242 -0.03999419 -0.0414528 0.027707703
-0.030024042 0.09420762 0.03321281 -0.03847759 0.030870102 0.0072171027 -0.10796492 -0.03994822
0.019636141 0.025810335 0.057975523 0.09890911 -0.029007196 -0.030113824 0.022556314 0.111838505
00000000: e76c a93d 4c85 313d 02d8 f03c dce7 b63d
00000010: d301 fabc 0dba a03d 657d 753d f941 2f3b
00000020: 0cf6 b83c 67fa f5bc 23d8 41bd 5d5c 0e3d
00000030: 80e0 8cbd 552d 1fbd b61a 163e f60e d3bc
00000040: e264 1bbd 6467 fbbc b7f8 f5bc 5f9b bc3c
00000050: fc25 08bd e83d e23d 9761 c23d 0000 0000
00000060: 9003 2c3e d898 1e3d bb1e fbbc eb34 9b3d
00000070: ea9e e23d d796 4a3b ac10 163d 55c2 ddbb
00000080: a667 943d 9011 01be 1103 273d 4afb fcbc
00000090: a11d d53c 7558 b33d 3405 313e 60d6 07bd
000000a0: 8f2c fabc 6d14 08bd 8cfa f5bc d4c0 8f3d
000000b0: a4d2 1fbd f3d0 23bd 69ca 29bd 44fb e23c
000000c0: fbf4 f5bc edef c03d 280a 083d ad9a 1dbd
000000d0: 4ce3 fc3c 727d ec3b b61c ddbd bfa0 23bd
000000e0: f9db a03c 3270 d33c be77 6d3d dc90 ca3d
000000f0: 80a0 edbc 44b1 f6bc 05c8 b83c 960b e53d

sequential_1/dense_7/MatMul/ReadVariableOp/transpose f4 [3, 64]
-0.47358075 -0.099607415 1.1247444 0.4204159 -0.09853383 -0.5041948 -0.45304072 0.29520634
1.5197281 0.27212888 -0.015009721 -0.7432497 -0.019649902 -0.15107298 0.2405815 -0.19396237
-0.19801137 -0.0031825046 -0.11349263 1.32765 -0.11208696 0.0987563 -0.3287124 -0.20489112
0.47470665 0.07435135 -0.08239621 -0.35780603 -0.058941096 -0.18704382 0.1861901 -1.2882621
-0.3817587 -0.21247463 -1.26024 0.28843203 1.199915 0.07178928 0.08185474 -0.015851451
0.1006758 -0.2353547 -0.12986062 -0.3701194 -0.052256294 -0.046282925 -0.2244825 1.3327672
0.21048827 -0.6217487 0.2706962 0.14660572 -0.47581086 -1.2792704 0.20017028 -0.12096136
0.44993386 1.0531431 -0.2812066 0.58273137 -0.020001044 -0.22521001 1.2519783 0.1506606
0.088441156 1.0917013 -0.17892773 0.22433084 -0.14453493 0.034821473 -0.100365095 0.57814264
-0.24659008 -0.26442945 -0.074439175 -0.63302124 0.13201477 0.03754348 -0.032073773 -0.24011181
-0.0033278777 -0.0330752 -0.15830348 0.044468984 -0.20915528 -0.13971055 0.0044594295 0.09521964
-0.21790433 1.2708678 0.032721102 1.0347245 0.025817666 0.15573047 1.0343204 0.22103097
1.2029005 0.27946696 -0.5380244 -0.18204053 0.021954635 0.20963043 -0.34553522 -0.18868013
-0.03061753 -0.266274 -0.19933665 0.03059946 0.057199374 0.27538052 -0.15578437 -0.029891033
-0.1382909 0.3816795 0.72319937 0.017760422 -0.3202117 0.33027652 -0.20642334 -0.26600823
0.18503217 0.28128174 0.9743498 -0.23721613 -0.17941108 -0.12799916 -0.03550442 0.1941932
0.4381424 -1.0666883 -0.68767214 -0.080655314 -0.07190571 0.6158306 0.57269365 -0.91725194
-1.5018296 -0.18885103 -0.13560195 1.2258935 0.16485241 0.004955071 0.34249857 -0.20242615
0.17678766 -0.078223325 -0.01195942 -1.3515338 0.25734302 0.3618115 0.45870957 0.045834303
0.16707702 -1.3159707 0.13936473 -0.44486046 0.42255005 -0.053632513 -1.0877761 0.77251387
-0.59183246 0.13283186 1.9099194 -0.035753764 -0.96992147 0.20933716 0.46666104 -0.059525643
0.29525018 0.17919166 0.17697577 0.35079595 -0.112780645 -0.1469503 -0.20301254 -0.9969188
0.034226447 0.38984036 -0.6515819 -0.1888443 0.8359519 0.83695793 0.025537468 -0.20786035
-1.1898018 -1.2247767 -0.57023585 -0.0865034 0.21943402 -0.105498075 -1.3740681 0.32329142
00000000: 2d79 f2be f9fe cbbd a0f7 8f3f c140 d73e
00000010: 1bcc c9bd e912 01bf f4f4 e7be 4925 973e
00000020: 7386 c23f 7a54 8b3e 55eb 75bc 9d45 3ebf
00000030: d5f8 a0bc e0b2 1abe ff5a 763e 129e 46be
00000040: 7ec3 4abe 9191 50bb d36e e8bd 6ff0 a93f
00000050: d98d e5bd be40 ca3d fe4c a8be face 51be
00000060: c00c f33e 8545 983d 58bf a8bd 5a32 b7be
00000070: 386c 71bd 6a88 3fbe 9ea8 3e3e c6e5 a4bf
00000080: e075 c3be f392 59be 8b4f a1bf 5dad 933e
00000090: d196 993f 4206 933d 75a3 a73d e7da 81bc
000000a0: 1d2f ce3d d300 71be 2ffa 04be 4a80 bdbe
000000b0: b20a 56bd 2a93 3dbd bede 65be 1e98 aa3f
000000c0: 3d8a 573e ec2a 1fbf b198 8a3e cf1f 163e
000000d0: 7b9d f3be 22bf a3bf 70f9 4c3e 97ba f7bd
000000e0: bb5d e63e 65cd 863f 50fa 8fbe e22d 153f
000000f0: 3bd9 a3bc 749d 66be d340 a03f c646 1a3e
00000100: a320 b53d debc 8b3f d538 37be fcb6 653e
00000110: f700 14be f6a0 0e3d 378c cdbd 2801 143f
00000120: 1c82 7cbe 4c63 87be 9173 98bd ae0d 22bf
00000130: e12e 073e 31c7 193d ca5f 03bd dfdf 75be
00000140: 8618 5abb dc79 07bd 4f1a 22be 1c25 363d
00000150: cd2c 56be 4810 0fbe 6820 923b 8402 c33d
00000160: 5022 5fbe ccab a23f 9006 063d da71 843f
00000170: 927f d33c cf77 1f3e 9c64 843f f155 623e
00000180: a5f8 993f 4b16 8f3e f8bb 09bf d568 3abe
00000190: 35da b33c 5ca9 563e fee9 b0be 5d35 41be
000001a0: 9dd1 fabc 1155 88be e81e 4cbe b8ab fa3c
000001b0: e449 6a3d adfe 8c3e f085 1fbe 0ade f4bc
000001c0: 219c 0dbe 7f6b c33e 9823 393f 4e7e 913c
000001d0: caf2 a3be 011a a93e a460 53be 3b32 88be
000001e0: 1379 3d3e 2904 903e fd6e 793f c9e8 72be
000001f0: 8ab7 37be 3612 03be 156d 11bd 95da 463e
00000200: 3354 e03e 3e89 88bf 480b 30bf 9d2e a5bd
00000210: 4d43 93bd 13a7 1d3f 0d9c 123f 06d1 6abf
00000220: f43b c0bf 2a62 41be 3ddb 0abe 14ea 9c3f
00000230: 12cf 283e 265e a23b f95b af3e cd48 4fbe
00000240: d307 353e 8d33 a0bd 71f1 43bc 0fff acbf
00000250: 77c2 833e 5b3f b93e fbdb ea3e c0bc 3b3d
00000260: 3d16 2b3e ba71 a8bf a1b5 0e3e c0c4 e3be
00000270: 7b58 d83e c4ad 5bbd 3f3c 8bbf 78c3 453f
00000280: 5582 17bf 1305 083e 3d78 f43f 8a72 12bd
00000290: c64c 78bf 7b5c 563e 32ee ee3e 29d1 73bd
000002a0: 082b 973e 057e 373e 2339 353e 879b b33e
000002b0: 8af9 e6bd 247a 16be 85e2 4fbe 1236 7fbf
000002c0: 0831 0c3d 2899 c73e 12ce 26bf 6660 41be
000002d0: f200 563f e042 563f f433 d13c 58d9 54be
000002e0: 6d4b 98bf 7cc5 9cbf fafa 11bf b228 b1bd
000002f0: 50b3 603e 600f d8bd 77e1 afbf 7486 a53e

sequential_1/dense_7/MatMul_bias f4 [3]
0.1454126 0.074757956 0.16854942
00000000: 0ae7 143e b31a 993d 3898 2c3e
