PaddockTSLocal 9.58.24 PM/resources/fcModel_256x64x256.tflite (tflite, 143392 bytes, 8 tensors)

sequential_3/dense_12/MatMul/ReadVariableOp/transpose f4 [256, 5]
000000 f9 d5 09 be cf 14 19 bc e9 da 37 3e db 2c f8 3d
       -0.1346053 -0.00934334 0.17954601 0.121179305
000010 5c 7f cd bd aa 62 28 bb fd d9 5e 3e 0f 39 65 be
       -0.100340575 -0.0025693574 0.21762843 -0.22385047
000020 0a a9 a7 3d 3a e5 3b 3d 7a 02 bc bd 73 cf 32 3d
       0.081865385 0.045872904 -0.0918016 0.04365487
000030 d1 61 99 3d d0 f8 dc 3d 95 1f 00 be 86 3e 28 3e
       0.0748936 0.10789645 -0.12512048 0.16430101
000040 00 de f2 3d eb aa f7 3b 70 f5 83 bd 6c d7 b5 bb
       0.118587494 0.007558217 -0.06443298 -0.005549362
000050 22 8c c5 bd 7e 2b 17 be f2 a8 00 3d 72 07 0e 3e
       -0.09645869 -0.14762685 0.03141112 0.13870028
000060 cb 17 74 be 00 90 98 3d 6d ef dc 3c 29 97 7e 3e
       -0.23837201 0.07449341 0.026969636 0.2486235
000070 1c 3a cb bd fd 11 ed bd ef 57 38 3e 03 ea 48 bd
       -0.09923193 -0.115756966 0.18002294 -0.049051296
000080 07 4a 30 3e 1e ab e2 bd 5b a0 6d 3c 5f 9e e1 3d
       0.17215739 -0.11067794 0.014503564 0.11016535
000090 6f 96 d7 3d 47 22 0a be b2 1b 7d bd 5a 0a 13 be
       0.1052674 -0.13489638 -0.06179399 -0.14359418
0000a0 6d 58 7c bd 49 3f 01 3e 06 e9 05 be 62 46 08 be
       -0.061607767 0.12621798 -0.13077173 -0.13308099
0000b0 7b 85 1a 3e 7e 67 08 3e fa 08 03 3c 99 e2 da bd
       0.15089981 0.13320729 0.007997746 -0.10687751
0000c0 b9 1a 0a be fe b5 11 3e ab c6 37 3e 04 af 05 3d
       -0.13486756 0.14229581 0.1794688 0.03263761
0000d0 51 49 2e 3d aa 5c a2 3d e4 b3 29 be 43 ff 90 bc
       0.04255039 0.079278305 -0.16572529 -0.017699843
0000e0 63 02 a8 bd 79 1f 55 3c 3f cf 12 be f8 59 e2 bd
       -0.0820358 0.013007992 -0.1433687 -0.110523164
0000f0 2b 42 35 be c1 38 11 3e 1c e8 ab bc 08 d2 16 ba
       -0.17701022 0.14181806 -0.020984702 -0.0005753343
000100 a9 4a 46 3d e0 82 2b bc f5 97 94 3d d1 1e b7 3d
       0.048411045 -0.010468215 0.07255546 0.08941425
000110 6e df ce 3c 99 f8 c6 3d de 66 de 3c c6 be 0a 3c
       0.025253024 0.09715385 0.02714866 0.0084683355
000120 0b 27 a2 bb f4 36 92 bd ab 33 1d 37 53 5f 7f 3d
       -0.004948502 -0.07139388 9.369959e-06 0.062346768
000130 57 ca 76 bc 64 76 7e 3d 73 14 0f be 90 23 0d 3e
       -0.01506289 0.062124625 -0.13972645 0.13783097
000140 c1 a0 bf bd e9 8d e3 bd 8e a2 eb 3c d1 cb 4a bd
       -0.09356833 -0.111110516 0.028764036 -0.04951078
000150 b2 e9 e6 bc ea d2 dc bd 08 dc c2 3d f6 d9 a4 3d
       -0.028187606 -0.10782416 0.09514624 0.08049385
000160 28 cc 22 be 5d bc fc 3d ba 61 91 3d 6e 4a 70 3e
       -0.15898192 0.12340615 0.07098718 0.23465893
000170 60 26 51 be ea 75 46 3d 55 c6 2a bd 58 b7 0e 3e
       -0.20424795 0.048452295 -0.04169305 0.13937128
000180 21 72 13 be 3a 08 cc bc 6f 58 f1 bd bf bc ad 3d
       -0.14399005 -0.024906266 -0.117844455 0.08483266
000190 ce f7 f2 bd f1 ba 6b bd cb 95 a7 bc 05 9c d0 3d
       -0.11863671 -0.057551328 -0.020457169 0.10186008
0001a0 82 d6 0b be de a9 64 3d 82 0f cc bd 19 f4 0c bd
       -0.13656047 0.05582606 -0.099638954 -0.034412477
0001b0 fb 89 50 3d fa 9d e2 3d 99 40 f8 bc f7 9f 9e 3c
       0.05091284 0.11065288 -0.03030424 0.019363387
0001c0 80 90 44 3d f0 4c a0 39 29 0e f5 bd 3a e5 a8 3e
       0.04798937 0.000305749 -0.119655915 0.32987386
0001d0 a4 cb c9 bd 26 07 0d 3d 5f 04 67 3d 85 12 0c be
       -0.098532945 0.034430645 0.056400653 -0.1367894
0001e0 3d 5c 60 bc 9e 61 00 3e e8 7e ff 3d 29 f1 94 bd
       -0.013693866 0.12537238 0.12475377 -0.0727256
0001f0 6e b4 00 3e 16 0e b3 bd 19 ed d9 bd 22 40 0e be
       0.12568828 -0.08742921 -0.10640926 -0.13891652
000200 f9 e3 a4 3d 61 f3 72 3e 73 ce 83 bd 5b 68 59 3e
       0.08051295 0.23725654 -0.064358614 0.21231215
000210 a2 71 9c bd 52 36 15 be de 8d 0c 3e 70 50 b8 bd
       -0.07638861 -0.14571503 0.13725993 -0.08999717
000220 82 d4 86 3c 70 47 8b 3d 9d 93 ee 3d 20 2c bb bd
       0.016458753 0.06800735 0.11649249 -0.091392756
000230 c9 fd bd bd 06 fe cb 3d be 60 ae bd 9b 79 0b be
       -0.09276921 0.099605605 -0.08514546 -0.13620608
000240 9e 50 ca 3d df 4e 20 3e b7 ae 30 bd 85 e3 11 3e
       0.09878658 0.15655087 -0.04313537 0.14246948
000250 e2 6e 65 3d 9f 4f 0a be e1 c3 77 3c 1a c5 82 be
       0.05601395 -0.13506936 0.015122385 -0.25541002
000260 71 de ca 3d 81 1b cf 3d e6 b4 44 bc 95 69 2d bd
       0.099057086 0.10112668 -0.01200602 -0.04233702
000270 9f 3f eb bd 5f df 0f be dc 14 83 ba 65 85 0b be
       -0.11486744 -0.14050053 -0.0010000723 -0.13625105
000280 ee c3 d6 bd b8 f5 53 be fe a5 3f 3d c1 38 3e 3e
       -0.10486589 -0.20699203 0.04678916 0.18576337
000290 d6 d2 96 bd 88 b3 ad 3d fa 0c 60 3e 59 3d 0e be
       -0.073644325 0.084815085 0.2187995 -0.1389059
0002a0 c1 59 99 bd 05 f9 c9 bc 54 4c 33 3e e9 ef 06 be
       -0.07487822 -0.024654875 0.17509586 -0.13177456
0002b0 7b d7 ac 3d d6 f6 8c bd 28 86 2a be f5 a2 57 3d
       0.08439537 -0.06883018 -0.16652739 0.052645642
0002c0 4e 17 84 3d d8 8f c6 bd 89 b2 b2 bd ee c5 d5 3d
       0.064497575 -0.09695405 -0.08725459 0.10438143
0002d0 41 60 f8 3c 0b d5 fd bc 71 6c e1 bd 55 46 44 3d
       0.030319335 -0.030985376 -0.11007012 0.047918636
0002e0 82 24 cb 3c 47 3d 0e 3e e6 2c 1e be 1b ae 32 3e
       0.024797682 0.13890563 -0.15446815 0.17449228
0002f0 6e 1e 00 3e 4c 23 26 be 2b fb 92 3e 51 1c cc bd
       0.12511608 -0.16224402 0.2870725 -0.099663384
000300 d7 a9 92 3d f4 d6 80 3d 84 ba 19 be 2c d5 10 3e
       0.07161301 0.06290999 -0.15012556 0.14143819
000310 db 82 24 be 1f 9e f9 bc 9d 33 2f 3d a2 0f 1a 3e
       -0.16065542 -0.030470906 0.04277383 0.15045026
000320 99 dc 88 be e3 55 6e 3d 92 c6 46 bd a8 7b ef 3d
       -0.26730803 0.058187377 -0.048529215 0.116935074
000330 43 45 8b bc eb e1 ba bd 4f 4d 42 bd 6e ea 36 3e
       -0.0170008 -0.09125122 -0.04743701 0.17862865
000340 3a a4 ae 3c 05 85 2d 3e 39 86 10 3d 79 17 ce be
       0.021318544 0.16945274 0.035284255 -0.40252283
000350 ae 51 04 bd cc dc 28 3e e7 81 2c be ac 0f 3e bb
       -0.03230446 0.16490477 -0.16846429 -0.002900104
000360 34 15 98 3d a0 f7 dc 3d bc 01 24 be 85 1a 26 3e
       0.07425919 0.10789418 -0.16016287 0.16221054
000370 ac de 18 3d d3 02 9b 3c bb a5 c2 bb 3f 36 1b 3e
       0.03732173 0.018922245 -0.005940167 0.15157412
000380 59 be 35 be ba fd 94 bd 4a 18 80 3e 4c 1c 1f be
       -0.17748393 -0.07274957 0.2501853 -0.15538138
000390 8d 46 2e bd dc ee 02 3e b9 15 d5 bd 36 d3 72 3c
       -0.04254775 0.1278643 -0.10404534 0.014820864
0003a0 24 4e be 3d ac d2 2e bd eb 85 c2 3d 00 8f e8 bb
       0.09292248 -0.04268138 0.09498199 -0.007097125
0003b0 c2 d9 ae bb 30 db e9 3b ad 6f b4 3b 28 cc c9 bd
       -0.0053360173 0.007136725 0.005506477 -0.09853393
0003c0 d3 de 50 3d ee 41 3d 3d 11 ae 9c bd e2 5d 93 3d
       0.05099375 0.046205454 -0.07650388 0.07195641
0003d0 61 42 b2 bd 48 a5 1c 3d 0a cf 9d 3d 53 05 0e be
       -0.08704067 0.038243562 0.07705505 -0.13869219
0003e0 ba 4b 04 be 05 3c 0b be a7 d3 a3 3d 71 23 d8 bd
       -0.12919512 -0.13597114 0.07999354 -0.10553635
0003f0 8b 39 00 be 75 e2 db bd 18 88 fc bb e4 d2 43 3d
       -0.12521951 -0.107365526 -0.0077066533 0.047808543

sequential_3/dense_12/MatMul_bias f4 [256]
000000 d2 96 7c bc 8c 1b f9 b9 33 23 14 bc 27 27 f1 bb
       -0.015416818 -0.00047513505 -0.009041595 -0.0073594037
000010 9c d4 9b 3d 37 df 2e 3c 56 71 1a bc 00 00 00 00
       0.076089114 0.010673336 -0.009426435 0.0
000020 a9 bd 1c ba 5b 27 fa ba a9 ab 33 bc 00 00 00 00
       -0.00059791893 -0.0019085215 -0.01096622 0.0
000030 0a 32 e1 3b f3 0b d9 bc 00 00 00 00 e8 88 64 39
       0.00687242 -0.026494956 0.0 0.00021794776
000040 00 00 00 00 69 55 23 3c 11 01 10 3d 00 00 00 00
       0.0 0.009969094 0.035157267 0.0
000050 00 00 00 00 08 29 ec bc fa bc 7f bc ec 1a 48 bc
       0.0 -0.028828159 -0.01560902 -0.01221345
000060 e0 29 08 bd 72 95 40 bb b1 cb 02 3d aa 6b e4 bb
       -0.03324306 -0.0029385951 0.031932537 -0.0069708424
000070 00 00 00 00 80 40 18 bc 9a 4f b5 bb 00 00 00 00
       0.0 -0.009292722 -0.005533171 0.0
000080 bb 8f 27 3b 57 f4 cf 3c c1 b8 b1 3d 06 b4 1a bc
       0.0025567848 0.025385065 0.08677817 -0.009442335
000090 ed e7 e7 bb 18 51 ef bb d5 10 8e bc 96 0a 1f bc
       -0.0070772083 -0.0073033683 -0.01734201 -0.009707114
0000a0 e5 ae 24 3c 7f 33 c1 bd 21 1d 05 3d 3f 83 19 bc
       0.010051464 -0.0943365 0.032498483 -0.00936967
0000b0 7c c4 d2 bb ea 1b fd 3b e7 44 e2 bc 06 1c 94 bb
       -0.006432114 0.007724275 -0.027620746 -0.004519942
0000c0 5b 24 c4 bb 00 00 00 00 00 00 00 00 4d 8a cc 3a
       -0.005985779 0.0 0.0 0.0015605182
0000d0 cb d7 12 3b 96 93 c1 bb 6d d8 12 bd 00 00 00 00
       0.0022406455 -0.005907486 -0.03585093 0.0
0000e0 40 fc 44 bc 00 00 00 00 d8 a6 93 bc fb 55 3e bc
       -0.012023032 0.0 -0.018023893 -0.011617179
0000f0 15 99 bf bc 4a e1 c7 bb 22 05 9f 3b 07 00 98 3d
       -0.023388425 -0.0060998546 0.004852907 0.0742188
000100 b1 e2 e4 bc ce 62 99 3c 00 00 00 00 00 00 00 00
       -0.027940126 0.018723872 0.0 0.0
000110 c0 57 6d bb 00 00 00 00 f5 9e 54 bc 90 7d 62 bd
       -0.0036215633 0.0 -0.012977351 -0.055295527
000120 00 00 00 00 12 05 ee 3c 00 00 00 00 62 f1 81 bc
       0.0 0.029055152 0.0 -0.01586217
000130 e5 3f 45 bc 8f e5 d1 bb 3c e8 0a ba 00 00 00 00
       -0.012039159 -0.0064055393 -0.0005298888 0.0
000140 00 00 00 00 8c f5 fc 3b 27 76 34 bc 95 f8 d3 bc
       0.0 0.007719701 -0.011014498 -0.02587537
000150 00 00 00 00 91 62 1e 3d 22 80 e2 3c 23 26 f6 bb
       0.0 0.03866822 0.02764899 -0.0075118705
000160 00 00 00 00 4a a0 b5 bb 79 d7 91 3c e2 23 bb 3c
       0.0 -0.0055427896 0.01780294 0.022844259
000170 15 20 70 3d 86 b6 6f bc 00 00 00 00 60 d5 da bc
       0.058624346 -0.014630919 0.0 -0.026713073
000180 00 00 00 00 33 a9 60 3c ac 3f 5f bd 00 00 00 00
       0.0 0.013712215 -0.05450408 0.0
000190 17 43 50 3c 00 00 00 00 5a 11 0d bc ef 73 74 3c
       0.012711308 0.0 -0.008610094 0.014920219
0001a0 4a 6d ed 3b 16 f1 a7 bc 5e e4 8d 3a 1e 81 23 3d
       0.0072456943 -0.0205007 0.0010825505 0.039918058
0001b0 31 6c e8 bb af 6d a8 bc 00 00 00 00 7a fa 3d bb
       -0.0070929755 -0.020560114 0.0 -0.0028988407
0001c0 00 00 00 00 59 17 ca 3a 7b c9 b5 bb 57 dc 8e 3c
       0.0 0.0015418335 -0.0055477 0.01743905
0001d0 16 07 62 bc 00 00 00 00 e8 f9 67 bd c9 f2 b8 bb
       -0.013795635 0.0 -0.056634814 -0.0056441766
0001e0 b4 b8 0d bc 00 00 00 00 00 00 00 00 00 00 00 00
       -0.008649994 0.0 0.0 0.0
0001f0 13 f4 bf bc 83 41 9f bc 00 00 00 00 e5 be d1 bb
       -0.023431813 -0.019440418 0.0 -0.00640093
000200 00 00 00 00 97 51 83 3c b2 91 d1 bc 59 06 ae bc
       0.0 0.016030116 -0.025582168 -0.021243261
000210 b6 a2 76 bc 18 9d 09 bd 2b fc 35 bc 2c 15 9a bc
       -0.015053442 -0.033597082 -0.011107485 -0.018808924
000220 e9 82 88 bc 22 c9 b1 3d 53 eb 9e 3c 57 7b b9 3b
       -0.016663985 0.08680941 0.01939932 0.005660455
000230 60 a1 30 3c 19 41 4d ba 6d e3 1b bc 00 00 00 00
       0.010780662 -0.00078298297 -0.009514672 0.0
000240 00 00 00 00 49 c9 13 3d 00 00 00 00 00 00 00 00
       0.0 0.036080632 0.0 0.0
000250 ec f4 47 bc de a2 07 bc bd e3 ba 3c 3e 89 88 3c
       -0.01220439 -0.008278577 0.022813672 0.016667005
000260 56 cf e2 3c 0c c9 b6 bb a9 d2 e0 bc c1 1d 33 3b
       0.027686756 -0.005578166 -0.0274442 0.0027330967
000270 00 00 00 00 1e c9 21 3b 7a 10 09 3d 00 00 00 00
       0.0 0.0024686526 0.03346298 0.0
000280 00 00 00 00 0e 6c 18 bc 07 22 ba bb a7 bd 9e 3c
       0.0 -0.009303106 -0.005680326 0.019377543
000290 a2 9c 5b bd 14 55 44 3c 00 00 00 00 65 90 54 3d
       -0.053616174 0.011983175 0.0 0.051895518
0002a0 00 00 00 00 b9 ad 10 bc d7 7b 1e bd ac e5 2f 3b
       0.0 -0.008830481 -0.03869232 0.0026839776
0002b0 00 00 00 00 00 00 00 00 00 00 00 00 fb fa a5 bb
       0.0 0.0 0.0 -0.0050653196
0002c0 4c f0 89 bc ef 79 09 bd 00 00 00 00 71 c5 b4 bb
       -0.016838215 -0.03356355 0.0 -0.005516701
0002d0 5e 63 03 bc 73 58 37 bc 00 00 00 00 17 59 c4 3c
       -0.008019296 -0.0111905215 0.0 0.023968263
0002e0 a8 11 c2 3c b4 e4 38 bc 00 00 00 00 cb cc e1 bb
       0.02369006 -0.011284996 0.0 -0.0068908683
0002f0 08 8a 89 bb 8c e7 6c bc 00 00 00 00 fb 18 ac bb
       -0.004197363 -0.014459502 0.0 -0.0052520013
000300 00 00 00 00 02 4e 02 bc b8 99 5a 3d 00 00 00 00
       0.0 -0.007953169 0.053369254 0.0
000310 d9 41 03 3c 2a 23 98 bc 00 00 00 00 72 17 07 bb
       0.008011305 -0.018571455 0.0 -0.002061334
000320 b7 b8 fa bc 00 00 00 00 14 aa 83 bc 11 35 41 bb
       -0.030605657 0.0 -0.01607231 -0.0029481093
000330 73 80 83 bc 4e db 36 bc 3b dd 3b 3d 4c 1a 48 3d
       -0.01605246 -0.011160685 0.04586528 0.048853204
000340 8d 5a ea bc 00 00 00 00 ab a1 d9 bc c1 bc 00 3d
       -0.028607631 0.0 -0.026566347 0.03143001
000350 9d 31 8d bb 00 00 00 00 53 02 d0 3c 00 00 00 00
       -0.004308893 0.0 0.025391733 0.0
000360 13 ca 5a 3d 00 00 00 00 43 6a 47 bc 00 00 00 00
       0.05341537 0.0 -0.012171331 0.0
000370 00 00 00 00 58 d9 d1 3b fe c8 bb ba 15 d1 58 ba
       0.0 0.006404083 -0.0014326868 -0.0008270902
000380 00 00 00 00 3e f9 01 bd 3c d5 42 3b 11 c5 ca bc
       0.0 -0.031731836 0.0029729148 -0.024752172
000390 00 00 00 00 a1 14 30 bc 00 00 00 00 00 00 00 00
       0.0 -0.010747106 0.0 0.0
0003a0 cb 63 25 3d 48 e8 98 3d 21 ac 76 bd 00 00 00 00
       0.040378373 0.07466179 -0.06022275 0.0
0003b0 1a a9 b7 bc 3f 11 51 bc 58 2e e3 3a 3e 00 66 3c
       -0.022419501 -0.012760459 0.0017332537 0.014038144
0003c0 00 00 00 00 0d 5d 1d 3d ee 6d a6 bc 50 8f 01 bc
       0.0 0.03841882 -0.02031609 -0.0079077035
0003d0 fe 87 a7 bb 08 81 15 bd 00 00 00 00 c6 66 9d bc
       -0.005112647 -0.036500007 0.0 -0.019214045
0003e0 00 00 00 00 2d e5 8b bc fb b4 16 bc 5e c9 23 bb
       0.0 -0.017077053 -0.009198423 -0.002499185
0003f0 40 4b db 3a c8 a7 18 bd 00 00 00 00 f0 37 81 3d
       0.00167308 -0.037269384 0.0 0.06309497

sequential_3/dense_13/MatMul/ReadVariableOp/transpose f4 [64, 256]
000000 76 ca 80 3d cc 7a 1f bd 3b 7c cc b9 28 53 26 bc
       0.06288616 -0.038935468 -0.0003900247 -0.010151662
000010 c4 0a 12 3b 69 df 00 3e 25 fb 89 bd d7 20 1b bc
       0.002228425 0.12585224 -0.06737355 -0.009468279
000020 72 4e 4c bd 36 e9 6a bd 53 a9 00 3c d7 e1 08 3c
       -0.0498795 -0.057351314 0.00785287 0.008354626
000030 2f ad 8b bd c1 7f cd 3d 1f b7 83 3d 10 fa 08 be
       -0.068201415 0.10034133 0.06431412 -0.13376641
000040 f7 06 07 3d cf 9f 00 bd 19 a9 bd bd 07 58 06 be
       0.032965627 -0.031402405 -0.092607684 -0.13119517
000050 f2 66 7f 3d ee 67 e2 bd 7d 90 fb bd f7 ff f6 bd
       0.062354036 -0.11054979 -0.12283418 -0.1206054
000060 96 55 b7 bc d9 37 c3 bc c9 fa e0 3d 6a 31 b2 3c
       -0.022379678 -0.023830341 0.109853335 0.021752078
000070 79 05 89 3d 7b d1 eb 3b 57 42 86 3d 1e 41 f2 3d
       0.06690497 0.007196603 0.06555622 0.11828826
000080 76 79 99 bd 3b 4d 33 bc 95 41 d2 bd 06 8c 1a 3d
       -0.0749387 -0.010943706 -0.10266415 0.037731193
000090 c7 e8 1c bc 3a 5d e9 3d 08 f2 ed bd fa 00 16 bd
       -0.009576983 0.11394735 -0.116184294 -0.036622025
0000a0 94 c7 01 3e 2e 25 e7 3d 8a 51 fb bd 6b fa f0 3c
       0.1267379 0.11286388 -0.12271412 0.029416284
0000b0 44 67 71 3d be 87 f3 bd 50 78 06 3c 46 db b3 3b
       0.058936372 -0.11891125 0.008207396 0.005488786
0000c0 97 b2 00 be 64 11 5f bd 12 31 fb bd 5b 08 8a 3d
       -0.12568127 -0.054459944 -0.12265219 0.06739875
0000d0 d3 56 eb bd 6e f5 5e 3d 7b 1c fc 3d b4 44 d5 bd
       -0.1149117 0.05443328 0.1231012 -0.10413495
0000e0 4d 73 28 bd 56 82 f7 3d f2 e1 36 bc c2 c2 c7 bd
       -0.041125584 0.120854065 -0.011162268 -0.09753944
0000f0 ad 20 f4 3d 14 85 08 be ce cc 92 bd b2 44 91 3d
       0.11920295 -0.13332015 -0.0716797 0.07093181
000100 be bc 83 bd 24 a6 23 bd ae cc cc bd 17 03 ef bd
       -0.06432484 -0.039953366 -0.09999977 -0.11670511
000110 1b ab b0 bd 51 2d b2 3d 1f d7 c9 3d 28 f7 d4 bd
       -0.08626386 0.0870005 0.09855484 -0.10398704
000120 e0 37 73 bd 7c 88 59 3c 1e b8 df 3c e6 f4 5b bc
       -0.05937946 0.013277169 0.027309474 -0.013425088
000130 4d 8f 60 3c 28 dd ea bd c3 3a a8 bc 2f 57 91 3c
       0.013706041 -0.114679635 -0.020535832 0.017741768
000140 8f 36 da bd 68 f5 9b 3c 1a da 44 bd 67 ac e6 3d
       -0.106549375 0.019037917 -0.04805956 0.11263352
000150 13 71 84 bd 82 9b bb bd cd 60 9b 3c 2c 7a a4 3d
       -0.0646688 -0.0916052 0.018967057 0.08031115
000160 83 4e b3 bd 2e 09 6a 3d de 8b f8 3d fd 9a 3e 3d
       -0.08755209 0.05713766 0.121360525 0.046534527
000170 a2 08 30 3c bc 89 00 3d b0 54 9a bd c8 98 a7 3d
       0.010744246 0.031381354 -0.07535684 0.081834376
000180 52 89 e6 bd 4c 9d d8 3d 4c 0a 81 3d 82 f6 ee bd
       -0.112566605 0.10576877 0.06300792 -0.116681114
000190 d9 4f 66 bd 89 8a ab 3d 67 19 7f 3d 6c f4 ca bd
       -0.056228492 0.08376033 0.062280085 -0.09909901
0001a0 27 ff b4 bc cb ee 77 bd a7 8c e2 3d 05 c3 03 3e
       -0.022094322 -0.060530465 0.110619836 0.12867363
0001b0 ef 7f 7f 3c b9 11 8a 3d bd ef ae bd 3d 7e 2c bd
       0.015594467 0.067416616 -0.0854182 -0.042112578
0001c0 05 60 af 3d 24 95 af 3d a9 48 23 bc a7 54 04 be
       0.08563236 0.08573368 -0.009966054 -0.12922917
0001d0 84 e9 a4 3d 5a 07 d8 3d eb 6a ea bd 17 af 42 3a
       0.08052352 0.10548277 -0.11446174 0.0007426603
0001e0 2f aa 21 3d 58 1b de 3d 37 3b b8 3c db 58 9d 3d
       0.03946894 0.10845059 0.022489173 0.076829635
0001f0 a7 94 b0 3d 2d c3 23 3b c2 77 5a bd 12 f2 ea bc
       0.08622103 0.002498816 -0.053336866 -0.028679881
000200 c3 3e b7 3d 23 ac 28 3d 06 8c b7 3d e8 a0 6a bd
       0.08947518 0.041179787 0.08962254 -0.05728236
000210 5c 9d 15 3d 5d 2b be bd 82 d2 6a 3d 6c e2 8d bd
       0.036527023 -0.09285615 0.057329662 -0.06927952
000220 5f b1 a3 3d 4d 95 10 bd b1 bb c1 3d f9 04 2e bd
       0.07992815 -0.035298634 0.094596274 -0.04248521
000230 1f 95 02 be d0 b4 b6 3c 75 e8 8d bd 2a bf 5f 3d
       -0.12752198 0.022303015 -0.06929103 0.054625668
000240 37 41 00 bd 33 e5 0e be 67 0c 0f bc d9 d2 8a 3d
       -0.031312194 -0.1395462 -0.008730984 0.06778497
000250 45 c9 39 3d f7 66 d8 bd 24 dc 8b bd e8 d3 8a 3d
       0.04535796 -0.10566514 -0.06829098 0.06778699
000260 d0 58 95 ba 6c 4a c1 3d 9c 88 5a bd e1 56 f0 3b
       -0.0011394266 0.09438023 -0.053352937 0.0073345755
000270 26 f9 ee 3d 7b b1 63 bd 08 60 b8 bd c7 70 14 bd
       0.11668615 -0.05558918 -0.090026915 -0.036240365
000280 eb 9a 9e bd ea 29 06 bd db 04 9f bd 53 98 05 3e
       -0.07744392 -0.032754816 -0.07764598 0.13046388
000290 4a 1b 9d 3d ab 64 54 bd b6 a8 d5 3c d9 0e f5 bd
       0.076712206 -0.051853817 0.026081424 -0.119657226
0002a0 8b 2b 15 3d af b6 48 3d 30 b5 0a be c9 56 83 bd
       0.03641848 0.049002346 -0.1354568 -0.06413037
0002b0 0c 78 cd bd b5 5b 91 3d d0 39 c7 bd 8d fc b7 3d
       -0.10032663 0.0709757 -0.09727824 0.08983717
0002c0 96 f8 47 3b 02 06 8b bd 09 b7 cb bd 36 73 51 3d
       0.003051316 -0.06788255 -0.099470206 0.051135264
0002d0 7f 4a b2 bd 54 ff 8f 3d ab 8c b0 bd 38 a5 e2 bd
       -0.08705615 0.07031122 -0.0862058 -0.11066669
0002e0 04 b6 a5 3d 84 ad 3f bd cd ad 09 bd b7 1c ba 3d
       0.08091357 -0.046796337 -0.033613015 0.09087508
0002f0 33 4a 6e 3d 29 1d e3 bd 5b bc 07 3e f2 be 42 3d
       0.05817623 -0.11089546 0.13255446 0.04754538
000300 b9 b1 99 3d 44 6f bb bd 38 a2 b3 3d 87 41 14 3d
       0.07504601 -0.091520816 0.08771175 0.036195304
000310 fc 10 53 3d e8 86 cf 3d bd 93 07 3e f2 32 e9 bd
       0.05152987 0.10133153 0.13239951 -0.1138667
000320 6f 05 cc 3c bf 6b af 3d e4 02 7c bd b1 48 e3 bd
       0.024904935 0.08565473 -0.061526194 -0.11097849
000330 2d 7f 5a 3b ce 28 bb bd 33 bf 03 3e c2 86 ce bd
       0.0033339963 -0.09138642 0.12865905 -0.10084297
000340 84 06 7b 3d 34 f4 97 bd 5b 5f ba bd d8 ac bc bd
       0.06128551 -0.07419625 -0.09100219 -0.09212655
000350 5a 85 7a 3d f7 59 b9 bb 0f ef 86 bd 1e 64 f1 3d
       0.06116233 -0.0056564766 -0.065885656 0.11786674
000360 e0 53 97 bd 15 68 05 be f4 f6 d6 3b a6 d3 55 bc
       -0.07389045 -0.13027985 0.006560201 -0.013050949
000370 b6 1a 51 3d 4c 3b 09 3d 3c a5 cd bb 20 28 17 3d
       0.051050864 0.033503816 -0.006275801 0.0369035
000380 68 a6 e5 3d 33 f7 9d bc 23 20 0d be 7d 22 1a bd
       0.1121338 -0.019282913 -0.1378179 -0.037630547
000390 b3 a9 09 be a3 5a 7e 3c 82 d7 c1 bc 0c 96 07 be
       -0.13443641 0.015524539 -0.023662332 -0.13240832
0003a0 bc 42 ff bd d9 15 03 3e ca 57 02 be 8e 78 60 bc
       -0.124639004 0.12801303 -0.12728801 -0.0137006175
0003b0 5c ec 2a 3c 96 83 80 3d 28 ec 0b be 2d 7b f4 3d
       0.010432329 0.06275098 -0.13664305 0.119375564
0003c0 27 d3 03 3c 4b 23 5b bc 43 e7 39 3d 3b ec a4 bd
       0.008045948 -0.013375114 0.045386564 -0.0805287
0003d0 1f 20 7d bd 3b 51 bd 3d 62 7b f1 3d e5 59 d2 bc
       -0.06179821 0.09244009 0.117911115 -0.02567763
0003e0 c6 21 ca bd 0f 0d a9 3c 92 9e 8e 3d 1c 5d c8 bd
       -0.09869723 0.02063611 0.06963839 -0.09783384
0003f0 28 d4 c2 3d 9d 7e d9 3d 4e 08 f4 3c 60 57 de bd
       0.09513122 0.10619853 0.029789116 -0.10856509

sequential_3/dense_13/MatMul_bias f4 [64]
000000 d9 b5 cd bb 00 00 00 00 cf cf 7b 3c e3 64 12 3d
       -0.0062777814 0.0 0.01536937 0.035740744
000010 78 02 d5 bb af 9f b8 3b 2c 0f ed bb 54 05 b0 3c
       -0.0065005384 0.00563427 -0.0072344746 0.021486916
000020 c0 ac ec bb 77 44 5b 3c bc 21 cd 3c c1 2e c5 bb
       -0.007222742 0.0133830225 0.0250405 -0.0060175364
000030 41 2f 42 3d a1 08 34 3d 3e be a6 bc 0c 29 14 bc
       0.047408346 0.04395354 -0.020354386 -0.009042989
000040 28 7b 00 3d ef 28 35 3d 68 c7 00 3d 53 08 4f 3d
       0.03136745 0.04422849 0.03144017 0.050545048
000050 25 ac 6f bc 58 fb 48 3c cf 59 64 3b 70 ee a4 bb
       -0.014628445 0.012266956 0.003484357 -0.005033307
000060 79 65 9f bc 86 c9 04 3d 0c 2c 30 3d 23 72 f5 bb
       -0.019457566 0.03241875 0.043010756 -0.007490413
000070 74 a1 eb 3c 6c 94 f0 bb 5d 51 26 3d ce 73 8b 3d
       0.02876351 -0.007341912 0.040604938 0.06809197
000080 58 80 80 3d 46 c3 1d 3d 47 11 26 3d d8 eb ea bb
       0.0627448 0.038516305 0.04054382 -0.007169228
000090 e5 6d 51 3c 34 fd 02 3c 56 2f 0c 3d a8 00 95 bc
       0.012782549 0.007994939 0.03422483 -0.01818879
0000a0 52 6e 85 bc 9d de eb bb b9 15 97 3d 00 00 00 00
       -0.016287956 -0.0071981684 0.0737719 0.0
0000b0 1b b0 ef bb 66 cd af bc eb 30 02 3d ea 99 c3 bb
       -0.0073146946 -0.021460246 0.031784933 -0.0059692757
0000c0 95 c2 ea bb b7 1e 10 3d a3 c6 1d bd 0c 13 39 3d
       -0.0071643093 0.035185542 -0.038519513 0.04518418
0000d0 29 c3 10 bd ab 0e c2 3c 55 61 87 bc 18 45 b6 3c
       -0.03534237 0.023688635 -0.016525904 0.022249743
0000e0 1c 39 15 3d 05 45 7a 3d b0 7f 29 bd 40 5e da bc
       0.036431417 0.06110098 -0.041381538 -0.02665627
0000f0 3d b6 f1 3c 90 45 50 3d 87 9e c6 bc db b8 4c 3c
       0.029505843 0.05084759 -0.024245514 0.012495245

sequential_3/dense_14/MatMul/ReadVariableOp/transpose f4 [256, 64]
000000 a1 6f 47 bd 7c 12 3a bd d0 de 11 bd 4d ed d8 bd
       -0.048690442 -0.045427784 -0.03561288 -0.105921365
000010 ca 3a 8a 3d 6f bf a9 bd 7d fe e6 3c 3d 5e 22 39
       0.067494944 -0.08288466 0.028197521 0.0001548463
000020 13 32 5a bd f4 d1 6b 3c af fb b9 bd a7 fa d6 bd
       -0.05327041 0.014393318 -0.09081208 -0.10497027
000030 08 e3 c0 3d 69 f3 94 3d 8b 74 c3 3d d2 c8 c2 bb
       0.09418303 0.07272989 0.09543713 -0.00594435
000040 05 e6 37 3d 4c ff 9c bd 0f 62 00 be ec c5 4e 3d
       0.044897098 -0.076658815 -0.12537406 0.05048172
000050 06 8e 5e 3c 56 69 40 bc 17 93 10 bd 08 39 37 bd
       0.013583666 -0.011743864 -0.035296526 -0.044732124
000060 91 37 93 bd 43 e0 da 3d 27 5f d2 3d 26 78 7b 3d
       -0.07188333 0.10687306 0.10272055 0.06139388
000070 1c 52 af 3d 69 94 fd bd e4 27 a1 bd c6 f0 f1 bd
       0.08560583 -0.123818226 -0.07868937 -0.11813502
000080 3b 44 08 bd d0 94 2f bd 99 d5 10 3b 92 5c 41 bd
       -0.033268195 -0.042866528 0.002209997 -0.047207423
000090 94 42 73 bd 59 4a 55 bc 00 9e fc bd 42 a0 e0 bd
       -0.059389666 -0.013018214 -0.123348236 -0.10968067
0000a0 9a d5 c8 bd 5c 68 a4 bc 77 dd e5 bd 5d d5 f4 3d
       -0.09806366 -0.020069294 -0.11223882 0.11954758
0000b0 41 37 7e 3d 35 55 7e 3c f0 88 f9 bd 37 f1 fc 3d
       0.062064413 0.015523245 -0.12184322 0.123506956
0000c0 32 cc d1 3d 26 9f 1b 3d ea 0d 2f 3d cc 0e cf bb
       0.10244025 0.037993573 0.04273788 -0.0063189026
0000d0 f2 1c 4c bd 18 8c b5 3d ad 51 00 be a7 fd 3b bd
       -0.049832292 0.088646114 -0.12531157 -0.0458962
0000e0 09 a1 61 bd 76 42 13 3d d9 f2 72 bd 4e f8 86 3b
       -0.055085216 0.035952054 -0.05931363 0.0041189557
0000f0 cb ab 97 bd d9 01 6f bd 12 3d c1 bd 84 1c db 3c
       -0.07405814 -0.05835137 -0.09435476 0.026746996
000100 ce 6c e2 bd ec 94 09 3e 18 c7 b7 3d e1 83 5e be
       -0.11055909 0.13435715 0.08973521 -0.21729995
000110 86 57 c8 3d 51 5a 7c be 3d 8e c7 bd 21 c2 fd bc
       0.09782319 -0.24643828 -0.09743927 -0.030976357
000120 4a 71 d8 3d 7a 66 77 3d 44 b8 ed 3d cb c4 5b bb
       0.10568483 0.060400464 0.116074115 -0.0033534046
000130 6d 28 94 be 29 b9 0c 3d 75 c2 ed 3d 9d 99 fd 3b
       -0.28937092 0.03435627 0.11609355 0.0077392594
000140 88 aa 11 3e ef d2 ab 3d 46 ba 8b bd 92 88 82 be
       0.14225209 0.08389842 -0.06822638 -0.2549482
000150 e6 43 1d 3e 74 62 ce bc c5 a5 92 3b 73 8f a2 3e
       0.15357932 -0.02519343 0.0044753277 0.31750068
000160 5e cc a5 3d 00 6c 78 be 41 dc 15 bd c9 76 8c 3d
       0.080956206 -0.24259949 -0.036587004 0.06858594
000170 5f 07 09 3e e2 38 13 3e ad 0c 1a 3d 75 2b 11 3e
       0.13381718 0.14377168 0.037609745 0.14176734
000180 64 38 91 bd 5c 55 32 3c 26 c0 bd bb 0d 4c 2a 3d
       -0.07090834 0.010884609 -0.005790728 0.041576434
000190 58 ae 06 3e 18 e0 c1 3a a3 db 88 3d 36 6e 03 be
       0.13152444 0.0014791517 0.066825174 -0.12835011
0001a0 54 b0 df 3c d3 a7 97 3d 9b c5 58 3e 24 31 10 bd
       0.02730576 0.07405057 0.2116913 -0.035203114
0001b0 ec 75 66 3d a0 0f 06 be aa a7 2f bc 63 3b 5e 3a
       0.056264803 -0.13091898 -0.010721127 0.0008477477
0001c0 45 75 8e 3d 6c 42 a2 bd c9 aa 50 bd 02 0b 40 3d
       0.06955961 -0.07922825 -0.050944123 0.046885498
0001d0 a3 4a a6 3d 3d 2e 0e bd 0e 31 c6 bc 1d f0 7c 3c
       0.081197046 -0.034712065 -0.024193313 0.015438107
0001e0 05 87 b9 bd 3a eb 8d 3e f0 87 c6 3d 09 74 7a 3c
       -0.09058956 0.27718526 0.09693897 0.015286454
0001f0 d0 72 bc 3d ab a1 81 bd a4 de b7 bc ea 2b 9a 3c
       0.09201586 -0.06329664 -0.02244503 0.018819768
000200 41 b5 b0 bd 2e 9e 17 bc 71 43 89 bd ac 96 06 3d
       -0.086283214 -0.009254022 -0.067023166 0.032858536
000210 68 fb 06 3e 5f d3 9d bc 2b aa 73 bd d9 3b 3f 3d
       0.13181841 -0.019265829 -0.059488457 0.046687935
000220 45 4d 7e 3d 53 ca 9d 3d a7 77 87 bd 0e b1 3b bc
       0.06208541 0.07704606 -0.06614619 -0.011455787
000230 31 cf 2d 3c 87 92 c4 bc 1d 0b e1 3d ea 78 b9 3d
       0.01060848 -0.023995651 0.10988448 0.09056266
000240 60 34 a9 bd c0 b9 f7 3c 6a 48 57 bd 8f d9 a8 3b
       -0.08261943 0.03023994 -0.052559294 0.005152888
000250 30 ac ba bd cd b4 10 be 93 22 a9 bc 72 c3 c1 bc
       -0.091148734 -0.1413147 -0.02064637 -0.023652766
000260 12 d1 8a bd bc b3 6a bd 9f 97 ca 3d ce 4f 9d 3d
       -0.06778158 -0.057300314 0.09892201 0.07681237
000270 b8 f4 b9 bd 7e 58 cf bd 41 d2 ff bd 80 ff b4 3c
       -0.090798795 -0.101243004 -0.124912746 0.022094488
000280 16 ae 36 3d 4b 1b fa 3d c2 35 e4 3d dd 22 e3 3c
       0.044599615 0.12212237 0.11143066 0.027726585
000290 f1 73 06 3e 59 20 c2 bd 07 23 a3 3d 5d 4b e8 3d
       0.13130166 -0.09478826 0.07965665 0.113424994
0002a0 28 3d 02 3e c9 3f f8 3d d9 36 0b 3c 79 e0 7a 3d
       0.12718642 0.12121541 0.008496963 0.06124923
0002b0 76 66 80 3c 84 f2 b0 3d eb 28 f5 bc b8 a5 d1 3d
       0.015673857 0.08640006 -0.029926738 0.102366865
0002c0 2e a1 c0 ba cb a9 04 3e e9 6c 9d 3d a6 c8 f8 bd
       -0.0014696473 0.12955396 0.076867886 -0.12147646
0002d0 da e9 c1 bd 1b 6d af bd d6 81 b8 3d 4f e9 c4 bd
       -0.09468432 -0.08565732 0.09009139 -0.096148126
0002e0 72 c9 b8 bd d8 25 bd 3d 8a a0 9e bc 8e ad a5 bb
       -0.09022798 0.09235734 -0.01936366 -0.0050560897
0002f0 2d 94 64 bd 06 30 a3 3d fe 9e 2a 3d 0a c7 a8 bc
       -0.055805374 0.07968144 0.041655533 -0.020602722
000300 ee e2 c9 3d 26 51 9a bc 4e 03 d1 3d 36 7a f3 3d
       0.098577365 -0.018837523 0.102057084 0.11888544
000310 96 85 86 bd 6f 58 99 bd dd b6 c9 bd 26 8d b7 39
       -0.06568448 -0.074875705 -0.098493315 0.00035009644
000320 7a 4a 0e bc 5c 67 d6 bd 53 34 25 bd 2f 6f 6c 3d
       -0.008684749 -0.10468933 -0.040333103 0.05772322
000330 8e a8 28 3a e0 73 0e be 47 3d 11 3d 66 3d 87 3d
       0.0006433808 -0.1391139 0.03545883 0.06603508
000340 51 01 15 be fa 3c 86 bd 41 6c f2 3b a5 58 ab bd
       -0.14551283 -0.06554599 0.007398159 -0.08366517
000350 42 55 02 be b6 ea 69 bd 69 b8 60 bc 5d 1c ae 3d
       -0.12727836 -0.057108603 -0.013715842 0.085015036
000360 7e c2 81 bd 71 87 1f 3c 58 0f c5 3c a9 97 f2 3d
       -0.063359246 0.009736882 0.024055168 0.11845333
000370 d8 83 8c bd 54 7e fb bc 7c e0 0b be 0d ee f4 bd
       -0.06861085 -0.030699886 -0.13659853 -0.11959467
000380 94 b8 06 be 09 08 84 bc bf 7b 03 bd 14 b2 f7 bd
       -0.13156348 -0.016117113 -0.032100435 -0.120945126
000390 a9 5b 62 3d 4c 9b db bd 7c 44 81 3c d6 1d ea bd
       0.055263195 -0.1072298 0.015779726 -0.11431472
0003a0 0e db ca 3d 4d 8a d4 3d ef 2d d3 bd 22 57 0f 3d
       0.099050626 0.10377941 -0.103114955 0.034995206
0003b0 04 f5 34 bb 26 fc 9f 3c c9 b3 75 3d fa ee fe 3c
       -0.002761186 0.019529413 0.05998591 0.031119812
0003c0 58 84 03 3d 46 e3 db 3d ce 41 e9 bd bc 8f ba 3d
       0.032108635 0.10736708 -0.113895044 0.091094464
0003d0 d6 77 00 3e 60 5b 4c bc da 66 31 3d 7f e2 f9 3d
       0.12545714 -0.012472957 0.043310978 0.12201404
0003e0 59 24 30 3c 05 75 f5 bd 23 2b df bd 2e 5a 20 3a
       0.010750853 -0.1198521 -0.108968996 0.00061169534
0003f0 05 cc 2b bd 86 49 6e bc 11 26 47 3d eb 94 a3 3d
       -0.041942615 -0.014543897 0.048620287 0.07987388

sequential_3/dense_14/MatMul_bias f4 [256]
000000 d9 5b c2 bc 57 b0 4b bc 54 30 37 bd e8 d5 ea bb
       -0.023725437 -0.012432179 -0.044723824 -0.007166613
000010 57 c5 e2 bc 83 2d 6e bc 1b 9f 1b bd eb 6a 0b 3d
       -0.02768199 -0.014537218 -0.03799353 0.03403751
000020 b3 97 76 3c 00 00 00 00 e3 a1 95 bc c0 41 4d bc
       0.015050816 0.0 -0.01826567 -0.012527883
000030 7e 84 c5 bc ad 12 58 3d 10 f2 34 bd 21 8f 4d bc
       -0.024111029 0.052752186 -0.04417616 -0.012546332
000040 00 00 00 00 00 00 00 00 da 81 e9 bc 75 d8 1c bb
       0.0 0.0 -0.0285043 -0.002393273
000050 d1 b0 29 3d d1 47 0e 3c ca 09 15 3d c8 62 33 3d
       0.04142839 0.008684115 0.03638629 0.043795377
000060 92 64 c7 3d 2c 74 76 3d e7 11 8c 3d c3 5e 3b 3d
       0.09735979 0.060169384 0.06839352 0.04574467
000070 40 18 65 3c 10 3a 43 bd 81 ae 20 bc 72 48 ee bb
       0.013982832 -0.047662795 -0.00980723 -0.0072718197
000080 4c bf 88 ba db 9b ba bc 44 a3 fe bc ed 09 86 3c
       -0.0010432987 -0.022779396 -0.03108371 0.016362155
000090 d7 c7 3c 3d d7 2a 98 3c 33 5d 28 bc 0f f2 97 3c
       0.04608902 0.018575115 -0.010276127 0.01854804
0000a0 b5 13 92 bc d6 68 95 bc 13 97 2f bc ac fd 21 3d
       -0.017831663 -0.018238466 -0.010717171 0.03954856
0000b0 4a ba 97 3c a7 09 41 bd c0 3e 2e bb 8f c9 99 bc
       0.018521447 -0.047128346 -0.0026587695 -0.018772868
0000c0 cc e8 07 bb fd 1c 20 bd c8 0e a3 bc 3a c9 c2 bc
       -0.0020738123 -0.039090145 -0.01990451 -0.023777593
0000d0 2a 04 ce ba 44 cb 01 bd 59 f9 ac bc 46 0b 68 3d
       -0.0015717794 -0.03168799 -0.021114992 0.056651376
0000e0 db d0 2e bc 74 ba 7e bc ec 9f 73 3d 3a ed e8 bb
       -0.010669912 -0.015547384 0.059478685 -0.0071083577
0000f0 9f ad 88 3c ac ac f6 bb 4d 74 8b bc 4c e5 91 bc
       0.016684351 -0.0075279083 -0.01702323 -0.017809533
000100 1d e6 1b bc 34 0e 7e bc 34 9d b8 bc 2b 3a 8e 3d
       -0.0095153125 -0.015506316 -0.022535898 0.069446884
000110 b0 1e 2a bd dc 38 c4 bb 00 00 00 00 fa 3b 2b bd
       -0.041533172 -0.0059882235 0.0 -0.041805245
000120 51 81 ed bc 00 00 00 00 ba dd 96 3d 68 08 f0 bc
       -0.028992327 0.0 0.0736651 -0.029300883
000130 de 04 48 bc 00 00 00 00 16 5a d7 3c 68 9e fe bc
       -0.012208192 0.0 0.026288074 -0.031081393
000140 00 00 00 00 45 f5 1b bc 90 f7 78 3d 3b 57 b0 3d
       0.0 -0.009518926 0.06078297 0.08610388
000150 93 e6 69 3d 74 22 86 3d a6 a8 c3 bb af 8d c2 bc
       0.05710466 0.0654954 -0.005971032 -0.0237492
000160 a9 fa fb bc 04 47 84 3d 5b 79 6d bc 5b 0c c2 bc
       -0.030759173 0.06458858 -0.014494265 -0.023687532
000170 6a 3a 81 bc fa 98 62 bc bd 26 bf bc 75 eb fc bb
       -0.015774924 -0.013830418 -0.023333902 -0.0077184984
000180 48 bf 34 3d 60 9c 53 3d ef c6 c8 3c 31 5c c7 bc
       0.044127733 0.051662803 0.024508921 -0.024335952
000190 34 cb b9 bc e4 d1 26 3d 2a 07 81 3d 6a 87 ef 3b
       -0.022679903 0.04072751 0.063001946 0.007309844
0001a0 3c 89 04 bd ec b4 9b 3c 4f e0 a3 3d f5 19 0b bc
       -0.03235744 0.019007169 0.08001768 -0.008490075
0001b0 73 5b c8 bc 44 5f 0e bc 74 f1 0b 3d 67 3e e8 3b
       -0.024457669 -0.008689705 0.034165815 0.007087517
0001c0 db b4 5f 3d 90 f4 bf bc 1c 57 07 bd e4 59 27 3d
       0.054615837 -0.023432046 -0.03304206 0.04085721
0001d0 db 16 ea bc 42 50 bf 3c 9d 93 89 3d aa aa b6 3b
       -0.028575351 0.0233537 0.06717608 0.005574544
0001e0 d0 f7 1f bc b9 6d 47 bd dd 22 87 3d 3d 38 2a 3d
       -0.009763673 -0.048688624 0.065984465 0.04155754
0001f0 13 3b b0 bc 00 00 00 00 a7 43 25 bc 53 f8 05 3d
       -0.021512544 0.0 -0.01008693 0.032707524
000200 1c 40 c7 bb 25 d4 22 bd 0f a3 97 bc 09 ed e2 bc
       -0.0060806405 -0.039753098 -0.01851037 -0.027700918
000210 d9 a3 fa bc 74 3f 28 3d d7 fa 77 3d 00 00 00 00
       -0.030595707 0.04107614 0.060541954 0.0
000220 66 3b 96 bc e5 89 e2 3a 06 e1 20 3d 65 a6 01 bc
       -0.01833887 0.0017283527 0.0392771 -0.007913207
000230 56 e4 f7 3c 08 16 a3 3c 2c 97 c3 3b f7 34 1b bd
       0.030260246 0.019907966 0.005968949 -0.037892308
000240 73 eb 11 bd d8 f3 9e 3d 54 e2 fc bb 08 ea 4d bd
       -0.035624932 0.07761353 -0.00771741 -0.050272018
000250 7a de b9 bc 46 84 82 3d 87 83 bc bc 8b f8 98 bc
       -0.022689093 0.063728854 -0.023011936 -0.018673202
000260 23 ba c6 bb ac bb 80 3c 0d ac 32 ba aa 21 39 3d
       -0.0060646697 0.015714489 -0.00068157987 0.04519812
000270 29 af 1e bc 99 07 81 3d 13 35 26 3d 31 06 13 3d
       -0.009685316 0.06300277 0.04057796 0.035894576
000280 4b dc d2 bb 5a b2 4f 3d 00 00 00 00 49 36 d6 3a
       -0.0064349524 0.0507072 0.0 0.0016343083
000290 7a b2 d7 bc 4e 88 88 3c ba a9 9f bd d7 3d 08 3d
       -0.026330221 0.016666558 -0.07796045 0.0332621
0002a0 6b 6e 60 bc 92 f9 54 3d 1c dc 3d bd 14 db c1 bc
       -0.013698201 0.05199582 -0.04635249 -0.023664035
0002b0 30 e5 12 bd 21 ca 0c 3d 1d b9 46 bc 5e a4 78 3d
       -0.0358631 0.034372453 -0.012129095 0.060703628
0002c0 15 9b 8f bc 7b 20 06 3d 91 c0 6e 3d 6e fe c7 bc
       -0.017530004 0.03274582 0.058289114 -0.024413314
0002d0 1e 45 73 3d d7 26 fe bc d5 5b 64 3d 76 26 e3 3c
       0.059392087 -0.03102438 0.05575164 0.0277283
0002e0 00 00 00 00 29 2c 59 3d 2b 7c 82 ba 92 92 09 3d
       0.0 0.05302063 -0.0009955218 0.033587046
0002f0 e3 a6 49 bd 30 67 2e bd 98 72 e2 3c 00 00 00 00
       -0.04923142 -0.042578876 0.027642533 0.0
000300 b6 a4 b6 bc 5e 0b 05 bd da 5d 6f 3d 66 d6 89 3d
       -0.022295337 -0.032481544 0.058439113 0.067303464
000310 19 6f 27 3c 4a a6 74 3b 2f ad ff bb b2 13 50 3d
       0.010219359 0.0037330561 -0.0078026275 0.050800033
000320 fa 7e bd 3c cf e7 05 bd 6f 8b 76 bc 4d 23 85 bb
       0.023131836 -0.032691773 -0.015047892 -0.004063046
000330 aa cc b5 bc a7 5c 12 3c 9b 1e c8 3b 47 02 31 bd
       -0.022192318 0.008933223 0.006107164 -0.043215062
000340 00 00 00 00 70 43 95 3d b1 72 ed bb 19 af 41 bd
       0.0 0.07288253 -0.0072463383 -0.047286127
000350 e5 f9 28 bc 68 51 f4 bb 0d 0f e8 bc 1c 04 01 3d
       -0.010313486 -0.0074559934 -0.02832749 0.03149806
000360 e1 8b 93 3d 19 44 50 3d 6b 70 db bc 40 51 29 3d
       0.07204414 0.050846193 -0.026787004 0.04133725
000370 d3 f1 ae bc e4 78 e6 3c b8 8f c3 bc 81 5a 90 bd
       -0.021355545 0.028133817 -0.023872241 -0.07048512
000380 eb fc ca bc 5f 4f b3 3d 00 00 00 00 c2 33 2b 3d
       -0.024778804 0.08755373 0.0 0.041797407
000390 0f 8d e8 bc 00 00 00 00 ff 26 54 bc 39 29 8d 3c
       -0.028387574 0.0 -0.0129487505 0.01723157
0003a0 97 45 88 3c 29 15 9f bc 69 f6 95 bc 6a 7d 0d bc
       0.016634746 -0.01941927 -0.018305974 -0.008635858
0003b0 f4 d4 da bb 14 b2 3e 3d f6 19 bd b9 0a 94 89 bc
       -0.006678218 0.046556547 -0.00036068232 -0.016794223
0003c0 b6 ef 58 3d 61 d4 6d 3d 32 15 85 3d bc 2f 16 bb
       0.05296298 0.05806387 0.06498183 -0.0022916635
0003d0 ef 5e 98 bc 4b 52 22 3a 35 b3 bb bc fb ba 53 3d
       -0.018599955 0.0006192072 -0.022912601 0.05169199
0003e0 dd 21 88 3d b9 5d 4d 3d 9d 2e d2 bc ba 3c 1d 3d
       0.06647084 0.05013821 -0.025656993 0.03838799
0003f0 c8 20 5b bc d9 91 b9 bb b2 26 82 3d db 7b 42 bd
       -0.013374515 -0.0056631383 0.06355037 -0.0474814

sequential_3/dense_15/MatMul/ReadVariableOp/transpose f4 [3, 256]
000000 26 73 b2 3d be 39 b6 bd c9 a7 e4 bd 02 47 35 bd
       0.08713369 -0.08897732 -0.11164815 -0.04425717
000010 d5 f1 f3 bd 05 fc e1 bd 95 49 dd 3c 98 ec ee bd
       -0.1191136 -0.11034397 0.027012626 -0.116662204
000020 fc a0 60 bd 24 7e 03 3e 55 57 a0 3d 07 2a c3 bd
       -0.054841027 0.12841088 0.07829157 -0.095295005
000030 1c 5b 06 be 1d 5c f1 3c 6d 0b e2 be 3f 8e eb 3d
       -0.13120693 0.029462868 -0.44149342 0.11501741
000040 64 2e 62 bd b4 14 26 3d 38 28 b8 bb 9f f9 f8 3d
       -0.055220023 0.040547088 -0.005620029 0.121569864
000050 25 cd 0a be 34 df 8f 3d 4c 53 80 3d b1 f7 f3 3d
       -0.13554819 0.070249945 0.062658876 0.11912478
000060 29 9e db 3c a1 7a b6 bd 21 52 3a 3d a4 80 36 3c
       0.026808815 -0.08910108 0.04548848 0.011139069
000070 80 76 7e 3e 53 e6 99 3d 33 a5 47 bd e3 82 0a be
       0.24849892 0.07514634 -0.04874153 -0.13526492
000080 51 61 55 3d c8 9c c1 3d f5 71 13 be 48 c8 f1 3e
       0.05209476 0.09453732 -0.1439894 0.47223115
000090 65 79 af bd a0 66 cb 3c 1d 28 f4 bd db 17 c2 bd
       -0.08568076 0.024829209 -0.119217135 -0.09477206
0000a0 d8 6f bd bc cb 59 f1 3d ee 83 cf bc 60 5e e0 3d
       -0.02312462 0.11784705 -0.025331464 0.109555006
0000b0 a7 e3 91 3e 7c f3 3a be 53 79 4e 3a 9e 74 dd bd
       0.28493997 -0.18256944 0.0007876355 -0.108132586
0000c0 df 73 2f 3f a1 8e 7f 3f 79 3e 0e 3e ad c7 0d bd
       0.6853618 0.9982701 0.13891019 -0.034614254
0000d0 9b 88 cb be 7d 60 fb 3b b4 62 a3 3d cd 19 a4 bd
       -0.3975266 0.0076714144 0.079778105 -0.080127336
0000e0 8e 0e 52 3d fa f8 f9 bd 37 8b f2 3d f9 ed 35 bd
       0.05128341 -0.12205692 0.118429594 -0.0444164
0000f0 49 b9 02 be e2 2a c6 3c 5d 17 89 bc 31 98 0a be
       -0.12765993 0.02419037 -0.016734773 -0.13534619
000100 44 ad 82 be 3c 52 18 bd 83 bd 71 be a1 50 9b 3e
       -0.25522816 -0.0371878 -0.23607449 0.30334952
000110 f7 bf f8 bd c7 70 8e bd 98 f6 07 be cc 3a a3 3c
       -0.121459894 -0.06955104 -0.13277662 0.019925497
000120 cf 96 ba bc a0 aa fc bc 51 81 21 3e 7b 2f 1c be
       -0.02277699 -0.03084308 0.15771987 -0.15252487
000130 36 2d 9c 3e ae 4e 65 bd db 52 02 be 62 86 ac 3d
       0.30503243 -0.055983238 -0.1272692 0.08424069
000140 c0 bc ec 3d d4 05 d0 bc 04 9b 68 3d f0 8f 86 3c
       0.11559439 -0.025393404 0.05678846 0.016426057
000150 19 68 81 3b f2 5d 44 3e c1 6f cb bd b9 40 d9 3d
       0.003949177 0.19176462 -0.09933425 0.10608048
000160 2f ee 9e bc d7 08 1b bc 60 ff 91 bd 6b 5a 65 be
       -0.019400684 -0.009462557 -0.07128787 -0.22397773
000170 b4 8f 56 3d e5 8b a2 3d d2 45 b0 bd 1b b4 79 3e
       0.05238314 0.07936839 -0.08607067 0.24385111
000180 ea ca ba 3d c9 51 c3 3d e2 9e b2 3d 07 07 67 3d
       0.09120734 0.09537084 0.08721711 0.056403186
000190 d9 86 09 3e 8c 47 b6 bd c6 d3 30 be 50 6f 0e 3d
       0.13430347 -0.08900365 -0.17268285 0.034774125
0001a0 a8 de 04 be 87 bb 9d 3e 2e f4 29 be 6b 8f b9 bd
       -0.12975562 0.30807135 -0.16597053 -0.09060558
0001b0 cd d2 b7 3c fe d1 0c be 1c 8f 21 3e 9a f5 0f 3e
       0.022439385 -0.1375198 0.15777248 0.14058533
0001c0 7e f8 6d bd fa 59 51 3d e2 00 8d bb 2d f7 2a be
       -0.05809831 0.0511112 -0.0043030838 -0.16695853
0001d0 80 24 08 3e a3 9e 84 bd 1c db 03 3e 01 a4 08 3e
       0.13295174 -0.0647557 0.12876552 0.13343813
0001e0 d1 5a 7d bd af b8 bf 3b 71 79 9d 3d c6 84 fa 3c
       -0.061854187 0.0058508734 0.07689179 0.03058089
0001f0 d6 6c 1e bc 48 db a9 bc 52 bf b7 bd 22 71 06 3d
       -0.009669503 -0.020734444 -0.08972038 0.032822736
000200 07 4f 49 bd ce 72 e8 3d 1c 4c d9 bd 46 0b 4b bd
       -0.049147632 0.11350022 -0.1061022 -0.049571298
000210 d3 03 20 3c 54 46 58 bc d7 ae e4 3d 40 d0 6f bb
       0.009766537 -0.013200361 0.111661606 -0.0036592633
000220 2f fe 87 bd 77 b5 8b 3e 33 d0 68 3e fc d4 5a bc
       -0.066402785 0.27286884 0.22735672 -0.0133564435
000230 e8 06 93 bd ef c9 03 3e 27 85 88 3e aa 54 3a 3d
       -0.07179052 0.1287 0.26664087 0.0454909
000240 0d 5c 17 bd 94 cd 8d 3e 96 29 44 bd ce a6 a8 3d
       -0.03695302 0.27695906 -0.047891222 0.082349405
000250 49 a0 ca 3c ee 79 51 3e 73 31 0d be f4 cc 01 be
       0.024734633 0.20456669 -0.13788395 -0.1267584
000260 46 18 9e bd c8 6c 7d 3e a7 e0 f6 3c 0a 93 85 3d
       -0.077194735 0.24748528 0.03013642 0.06522186
000270 9e 0c 04 be 7d ea e7 3d fa 52 2f be 6e 1c 05 bd
       -0.12895438 0.11324022 -0.17121497 -0.032497816
000280 b9 52 7e bd 11 1f da 3c f4 8d df 3d aa 7b 50 be
       -0.06209061 0.026626142 0.10915747 -0.20359674
000290 f0 c8 e1 bd 27 08 b2 bd 66 83 b7 3f 0e 57 06 be
       -0.11024654 -0.08692961 1.4336975 -0.13119146
0002a0 aa 75 16 bb 9c c7 1e be a5 76 aa bd 1e 63 93 3d
       -0.0022958317 -0.15505832 -0.08323411 0.071966395
0002b0 71 3f d0 bd b1 ac fc 3c 64 e6 cf 3e 49 d5 75 3d
       -0.101683505 0.030844064 0.40605462 0.060017858
0002c0 d0 de 13 be 9a 29 6b 3e e2 31 c6 39 12 b4 0f 3e
       -0.14440465 0.22965088 0.00037802669 0.14033535
0002d0 70 65 11 3d f6 50 7d bc 76 a2 4e bd 9d 7b 95 bd
       0.03549713 -0.015461197 -0.050447904 -0.07298968
0002e0 f4 bc b7 3d 6c b5 a0 3d 41 ec 61 bd f9 a0 a4 3b
       0.08971587 0.078471035 -0.05515695 0.0050240722
0002f0 5e cc c4 bd 87 73 e9 be 3f bb 96 3e bc f2 b9 bd
       -0.096092924 -0.45595953 0.29439732 -0.09079501
000300 36 fd 0c 3e 82 b5 7e 3b 69 95 0e 3e 45 2d 86 3d
       0.13768467 0.0038865511 0.13924183 0.06551603
000310 34 34 ff bc 07 f5 5d bf d2 86 5d bf 51 a1 14 3e
       -0.031152822 -0.8670201 -0.86533844 0.14514662
000320 fa 98 ac bc 88 ac e9 3d 7b 59 de 3d d5 cd b3 3d
       -0.021069039 0.11409861 0.10856911 0.08779494
000330 9d da 8c 3c 50 0b c7 3d 90 da 33 3e d9 31 19 bd
       0.017194087 0.097189546 0.17563844 -0.037401054
000340 52 90 b4 3d 07 b6 60 3d 7a b9 68 bc 5b ce ed bd
       0.088165894 0.054861095 -0.014204377 -0.11611625
000350 03 3c 6c be ec dd c5 3d 46 b7 8a bc 75 be c5 3c
       -0.23069768 0.09661469 -0.016933095 0.024138669
000360 ba 03 73 be dd 9e bb 3d ac 73 a6 3b fd 10 ec 3d
       -0.2373189 0.0916116 0.005079707 0.11526678
000370 be e4 95 3e 1d 72 89 be 09 b6 ef bd 28 a7 86 be
       0.2927608 -0.26844874 -0.11704642 -0.26299405
000380 37 58 05 3e 1a 73 4a be a4 88 5c 3d a4 66 c8 3d
       0.13021933 -0.1977047 0.05384125 0.09785202
000390 35 5b 99 bd ea a5 1a be 6c dc 56 3d 3e ec ea 3e
       -0.074880995 -0.15102354 0.052456304 0.45883363
0003a0 b0 74 b2 bd f9 a4 9d 3d f6 1e 1d be 0e 75 14 be
       -0.087136626 0.07697482 -0.15343842 -0.14497778
0003b0 d5 22 67 be f8 40 ee bd da 5a da 3c 07 00 be bd
       -0.22571881 -0.116334856 0.02665465 -0.09277349
0003c0 d9 28 b7 bc bc db df 3d 2b 55 99 3d b0 ad dc bd
       -0.022358345 0.10930583 0.074869476 -0.10775316
0003d0 34 5e ff 3b 88 bc 4e 3e b0 59 f7 bb 20 b9 03 be
       0.0077932123 0.20189106 -0.0075485334 -0.12863588
0003e0 f4 63 c9 3d 7d 68 71 3d d2 22 ad be 76 d1 29 3c
       0.09833518 0.05893754 -0.33815628 0.010364881
0003f0 db 00 74 3d fc 5d 8f bd 52 1d db 3d 13 42 3c bd
       0.05957113 -0.07000348 0.10698952 -0.04596145

sequential_3/dense_15/MatMul_bias f4 [3]
000000 5e d7 5d 3d 7a 65 14 3d 3e 1c 9a 3d
       0.05416047 0.036229588 0.07524918
