PaddockTSLocal/resources/fcModel_32x32x32.tflite (tflite, 11424 bytes, 8 tensors)

sequential_8/dense_32/MatMul/ReadVariableOp/transpose f4 [32, 5]
000000 e0 db 70 3e c3 b1 c6 be e2 2d 9e be 60 c7 3b bc
       0.23521376 -0.38807496 -0.3089438 -0.011461109
000010 63 1a c1 be fb eb 44 3e 96 48 55 bf f8 ac 6e 3f
       -0.37715444 0.19230644 -0.8331388 0.9323268
000020 18 27 26 bf ff dd d9 3d 51 2a 6c 3f 7a a8 94 3f
       -0.649034 0.106380455 0.9225207 1.1613915
000030 f9 3c e1 bd d8 bc 95 3e e9 ea 68 bf 64 4d af 3d
       -0.10997958 0.2924564 -0.90983444 0.08559683
000040 a0 ab bf 3e cc 4e a3 be 19 50 52 be c4 73 00 be
       0.37435627 -0.31896055 -0.20538367 -0.12544161
000050 33 ac 81 bf 3e 7c 91 3f 0a c3 f6 bd 03 36 7b 3e
       -1.0130676 1.1366041 -0.120489195 0.24532323
000060 30 fa 75 be a7 b9 89 bf bc 6e 2b 3f 89 fb 11 3e
       -0.2402122 -1.0759782 0.6696584 0.1425611
000070 93 2b 03 bf 34 c1 49 3f 32 2f ce 3e 6c d6 a3 be
       -0.51238364 0.7881043 0.40270382 -0.31999528
000080 e0 c9 fa be 49 a1 8e bf 6a 96 99 3d 4a 8c 25 bf
       -0.48982143 -1.114297 0.07499392 -0.6466719
000090 05 74 f4 3e 8c d0 75 bd 36 9d 10 3f 4c eb 49 bf
       0.47744766 -0.06001334 0.56489885 -0.7887466
0000a0 6e 0e 4d 3e 20 a1 bf 3d 9c 74 14 be 68 26 aa bd
       0.20025036 0.09356904 -0.14497608 -0.08308107
0000b0 91 86 2b bc 96 45 38 bf 42 dc 2e 3f f4 58 47 bd
       -0.010469095 -0.7198118 0.68304837 -0.048668817
0000c0 88 dd ed 3d 29 69 9d 3e 60 d0 dc 3d 6d fa c6 be
       0.11614519 0.30744293 0.10781932 -0.38862935
0000d0 74 9b 4c be 14 be f9 bd 4f 20 91 be 03 3e 0b be
       -0.19981176 -0.12194458 -0.28344962 -0.13597874
0000e0 aa 4b d9 3d 6c 9b 58 be 60 9f 3c 3e 9f be d8 3c
       0.10610135 -0.21153039 0.18420172 0.026458083
0000f0 d3 43 b0 3e 82 3f a0 be 4f 60 c9 bd df ee 8a 3d
       0.34426746 -0.31298453 -0.098328225 0.06783842
000100 17 41 a0 be 08 e5 99 3f 4e 79 86 bf c3 08 f6 3e
       -0.3129966 1.202302 -1.0505769 0.4805356
000110 a4 e0 e4 be fe 6e b9 3e 03 13 dd 3c ea 39 de bf
       -0.44702637 0.36217493 0.026986605 -1.7361424
000120 a9 5c fa 3d 9a f4 bf 3e 28 ac 3c 3f 77 22 49 3e
       0.12224705 0.37491304 0.7370019 0.19642054
000130 3c b3 a0 be 61 0e 08 3e 15 3b b4 be 23 5a 3e be
       -0.31386745 0.13286735 -0.35201326 -0.18589072
000140 bf cc b8 bc 64 15 17 bd 81 00 3a 3e 6a 2d d7 3d
       -0.022558568 -0.036885634 0.18164255 0.10506709
000150 35 a3 a3 be b8 13 b9 3d 78 ca 2c bf 60 89 b1 3e
       -0.31960455 0.09036964 -0.6749644 0.3467512
000160 49 11 37 3f 60 11 49 bf bb b7 25 3e 88 fc 16 bf
       0.7151075 -0.7854214 0.16183369 -0.5897908
000170 f7 56 16 bf 4b 99 8e 3f 79 04 f5 3c a2 d7 92 3e
       -0.5872645 1.1140531 0.02990936 0.2868014
000180 e0 e9 d1 3c 6c 35 b4 be db a8 b3 be e0 ca 48 3e
       0.025624216 -0.35197008 -0.35089764 0.1960864
000190 90 6d 97 be cc fc a9 be 19 53 95 be 42 db 0c be
       -0.29575777 -0.3320068 -0.2916496 -0.13755515
0001a0 74 4b 91 3d c5 c6 83 3e 38 e7 70 be 12 bd 6c be
       0.0709447 0.25737587 -0.23525703 -0.23119
0001b0 ec 52 0a be 85 69 5e 3e 6b e5 0d 40 96 3a 8d bf
       -0.13508195 0.2171994 2.2171276 -1.1033504
0001c0 8b 62 d9 bd 42 86 11 bc 3c 4d d8 bf 88 e8 b3 be
       -0.10614499 -0.008882107 -1.689857 -0.35138345
0001d0 a2 27 81 be ba a4 3d be b0 34 5e be 52 4f a8 3e
       -0.2522555 -0.1851987 -0.21699786 0.32873017
0001e0 20 11 57 3e 61 49 43 3e 8c 0f 61 3b e8 46 ad be
       0.21002626 0.1907096 0.0034341542 -0.3384316
0001f0 cc 6c 20 3e 28 7a 94 be 98 dd cb 3d 95 63 3c be
       0.15666503 -0.28999448 0.09954375 -0.18397363
000200 9c cf 5f be a4 57 a4 3e 79 a1 9f 3d 3c 27 a0 be
       -0.2185654 0.32098114 0.0779447 -0.31279933
000210 cc 0e a0 3d d2 55 53 be 8a 05 c6 be 4b 7f bd bf
       0.07815322 -0.20638207 -0.386761 -1.4804472
000220 f4 4d b7 3e 52 6d 03 3f 04 c5 f2 be f5 e3 e2 3e
       0.3580166 0.51338685 -0.47415936 0.44314542
000230 8c fb 53 be 08 2c 63 3f 5a 10 a0 bf 55 67 9d bb
       -0.20701426 0.8873906 -1.250499 -0.004803578
000240 c7 aa 03 3f c6 6e 1d 3e 6f 1b 08 3d a0 f8 48 bd
       0.5143246 0.15374288 0.033229288 -0.049065232
000250 09 82 21 3e ec e6 5b be 50 91 a8 3d 40 b6 14 bd
       0.1577226 -0.21474808 0.08230841 -0.03630662
000260 00 ae 9d bc 92 15 9d be ac 05 49 3e 7e 4e b6 3c
       -0.019248009 -0.3068052 0.1963107 0.022254225
000270 fb 5b b1 3d 7d 5f b7 bd 44 1a e9 bd d8 36 81 3f
       0.08660122 -0.0895376 -0.11381963 1.0094862

sequential_8/dense_32/MatMul_bias f4 [32]
000000 00 00 00 00 c4 c4 c0 3d f4 59 b4 bd 00 00 00 00
       0.0 0.0941253 -0.0880622 0.0
000010 65 b8 8f 3c e0 e1 0b bd 74 ce c0 3e d8 ce fe 3c
       0.01754398 -0.034150958 0.3765751 0.03110449
000020 66 85 47 bd fe 50 3f bd 00 00 00 00 da 55 8b bd
       -0.048711203 -0.0467081 0.0 -0.06803484
000030 46 65 74 bd 97 c1 9c bc 39 d8 0c bd f3 94 b0 bd
       -0.059666894 -0.01913528 -0.034385893 -0.0862216
000040 0c 05 9e bd 0d 7a 43 3d f5 14 b7 bd 00 00 00 00
       -0.07715806 0.04772382 -0.08939544 0.0
000050 00 00 00 00 e1 7d 38 bd 3c 57 00 3e 00 00 00 00
       0.0 -0.045041922 0.12533277 0.0
000060 79 98 57 bd 00 00 00 00 b3 14 1f bd f5 ff de 3c
       -0.052635644 0.0 -0.0388381 0.02722166
000070 4e d3 1a 3e 43 cc 24 bd 00 00 00 00 69 b9 4c bd
       0.15119669 -0.04023386 0.0 -0.04998151

sequential_8/dense_33/MatMul/ReadVariableOp/transpose f4 [32, 32]
000000 48 74 f5 bd 49 3b be bd cf 32 10 3e 9c 06 92 bd
       -0.119850695 -0.092886515 0.14081882 -0.07130167
000010 90 29 65 bd 6b b6 3c be c4 fd e6 bd 94 e8 38 be
       -0.05594784 -0.18428962 -0.11278871 -0.18057472
000020 7b bd 4a bd b8 42 2f 3d 24 7f 42 3e 77 ae 9c be
       -0.04949711 0.042788237 0.18993813 -0.30601856
000030 32 35 3f 3e 6f 40 2e 3e 30 a6 34 be bd 61 3b 3d
       0.18672636 0.17016767 -0.1764152 0.045747507
000040 56 cb 33 bd 8c c4 80 be 63 df 75 3d f1 dc 9a 3e
       -0.043895088 -0.25149953 0.06002749 0.3024669
000050 18 bb 05 be 5e 82 8b be 80 4c 36 be 76 d0 7a 3e
       -0.13059652 -0.272479 -0.1780262 0.24493584
000060 ba 28 8f bb 40 8d 00 be 7c df 8e 3d 86 38 cb bd
       -0.0043688687 -0.12553883 0.0697622 -0.0992289
000070 68 86 74 be c9 61 f6 3d c9 19 97 3e 08 ec 5f 3d
       -0.23879397 0.1203037 0.2951186 0.054668456
000080 f8 7f 73 bd fd e4 84 3e 8c f8 85 bd fc ea 76 bd
       -0.059448212 0.25955954 -0.06541547 -0.060282692
000090 26 9b 8a bd d8 85 49 bd 07 44 1f bd 5b 70 58 3e
       -0.067678735 -0.04919991 -0.038883235 0.2113661
0000a0 a1 f0 8a 3e 9b 60 8b be 81 63 84 be 1e 14 36 3e
       0.2713671 -0.27222142 -0.25857165 0.17781112
0000b0 7d 8c 99 3e c1 51 9b be af 42 93 be 36 88 74 3e
       0.29989997 -0.3033581 -0.28761813 0.23880085
0000c0 80 b9 77 bd f4 8b 46 be 25 c8 b5 bd e6 4d 39 3e
       -0.06047964 -0.19389325 -0.08876065 0.18096122
0000d0 d0 27 75 3d a0 af d5 3b 6f b1 f7 3d fc e6 88 bd
       0.05985242 0.0065211803 0.1209439 -0.06684682
0000e0 be a6 02 3e f5 d8 85 3e a6 fe d7 bd 08 20 5b 3d
       0.1275892 0.26142088 -0.10546617 0.053497344
0000f0 20 b5 67 bd 76 b9 bc bd 40 2f 4b bc fc 09 03 3e
       -0.05656922 -0.09215061 -0.012401402 0.12796777
000100 15 a6 dd 3c 7f f4 a8 3e f3 08 74 be 2d ea d7 bc
       0.027056733 0.32999036 -0.23831539 -0.02635678
000110 40 21 0b 3e 19 80 a6 3e d6 f0 1c 3f a9 fc 54 bf
       0.13586903 0.32519606 0.61304986 -0.8319803
000120 3a bc 0a 3e 92 2b 62 3d a6 02 e4 3c 6a d6 f6 3b
       0.13548365 0.055217333 0.027833294 0.0075328844
000130 ae 0f 42 3d b3 64 64 bf 95 f4 9b bf a5 aa b8 bd
       0.047378235 -0.89216155 -1.2184016 -0.09016923
000140 fa 17 5b bc 20 4a 18 bf 05 fc 34 bf e2 97 ed bd
       -0.013372416 -0.59488106 -0.7069705 -0.11601235
000150 56 74 3b 3d 96 bd c2 bc b3 e9 01 c0 4c fc 83 bc
       0.045765243 -0.023772042 -2.0298889 -0.016111515
000160 68 4a 60 3d 23 9c a4 bd b1 8d e0 bb 53 85 95 3e
       0.05475846 -0.08037593 -0.0068528284 0.2920328
000170 5d 6e f4 be fe 19 f0 3d 1f d0 20 bc 38 05 98 3c
       -0.4774045 0.117237076 -0.009815245 0.018557176
000180 28 6c 10 be 69 98 44 bf de 87 21 bf c6 1b 50 be
       -0.14103758 -0.7679506 -0.6309794 -0.20323095
000190 14 0c c2 be 0e a6 3f 3d 16 a2 18 3e 17 38 71 3e
       -0.3789984 0.04678922 0.14905581 0.23556553
0001a0 ad 2a 09 3e 09 a5 9a be ed 15 26 3b b7 c4 b4 bd
       0.13395186 -0.30204037 0.0025342659 -0.08826583
0001b0 18 fe 31 3e 26 21 c9 3f a0 af be 3e fe 4b a3 bd
       0.17382085 1.5713241 0.37243366 -0.07973479
0001c0 ed 83 dc bd 17 b1 ab be 26 4a b7 3f b6 0e 86 bd
       -0.1076735 -0.33533546 1.4319503 -0.06545775
0001d0 d3 c6 af bd 0b 84 c0 bc 44 ef 7c bf ca 5a 49 3c
       -0.085828446 -0.023500463 -0.9880259 0.012289712
0001e0 7d ee 95 3e a2 31 8d 3e 13 46 58 3e c2 31 a1 bf
       0.29283515 0.2757693 0.21120481 -1.259331
0001f0 cf f3 94 bd fd 02 61 3d aa ce f4 3c e5 4c 95 3c
       -0.07273065 0.05493449 0.029883701 0.018225143
000200 f0 70 4c 3d 17 fe 0c bd 47 e6 46 3e b0 7f 3c 3e
       0.049912393 -0.034422006 0.19423781 0.18408084
000210 3c b1 2f 3e d7 19 f6 bd 22 d5 42 be 38 6a 55 be
       0.17157453 -0.12016647 -0.19026616 -0.208413
000220 8f 51 7b 3e cb ca a5 be f8 84 04 bd 44 c3 fa 3d
       0.24542831 -0.3238128 -0.03235337 0.12244275
000230 3b a0 9a be 67 67 11 be 61 dd b4 bd 6d 67 0d be
       -0.3020037 -0.14199601 -0.08831287 -0.13808985
000240 50 f7 80 3d 4b 25 a7 be 03 bf a0 be 3c e5 13 3e
       0.06297171 -0.3264564 -0.3139573 0.14442915
000250 bc dd a8 bd c0 03 53 3c bf c1 96 3d 90 cb 88 be
       -0.082454175 0.012879312 0.07361173 -0.26717806
000260 ba e1 59 3e 70 23 40 be 00 15 5c 3d 6a 09 80 be
       0.21277514 -0.18763518 0.053730965 -0.25007182
000270 2a c2 26 3d 9f 0e 80 bd 80 13 cb 3c 7e db b9 bd
       0.040712513 -0.06252789 0.024789572 -0.09075068
000280 a1 f0 8b 3d a8 76 97 3e 91 9b 95 be d8 a9 2f be
       0.06833006 0.29582715 -0.2922025 -0.17154634
000290 bc 77 0f bf 73 9f ff be 80 ff 65 3f 08 53 87 bf
       -0.56042075 -0.49926338 0.8984299 -1.0572214
0002a0 4e 83 3e 3d ee 4f 30 bd 9f e3 d5 3c 9f c7 19 be
       0.04651194 -0.043044977 0.026109515 -0.15017556
0002b0 49 f6 6f 3e b8 32 ba 3f f8 db f5 be 6f 3c 78 3e
       0.23433794 1.4546728 -0.48019385 0.24241804
0002c0 3f 70 df bd ca 3b ce bd 3e 80 02 3f 79 2d 1f be
       -0.10910081 -0.100699976 0.5097693 -0.1554469
0002d0 b1 60 cd 3d 65 9d 03 bd 2e a6 11 3f 31 b2 0b be
       0.10028208 -0.032132525 0.56894195 -0.13642193
0002e0 ed 44 17 3d 6d 5f 11 3d 98 43 44 3c 51 02 e0 be
       0.036930967 0.035491396 0.011979006 -0.43751767
0002f0 83 1c d2 bf 75 5b 23 3e 5a cb 6a 3e 4d c3 df 3e
       -1.6414951 0.15952857 0.22929135 0.4370369
000300 60 a0 c4 3c 1b f0 3e bc 0a 66 01 be 6f a6 1b be
       0.024002254 -0.011653925 -0.12636581 -0.15200208
000310 9c d9 73 bd 0f 2b 40 3d 2c 2e 9a 3a 09 ea 5c 3a
       -0.0595337 0.046916064 0.0011763028 0.0008427208
000320 25 2b b7 be 85 e1 3f be 82 a7 04 be bd c4 55 3d
       -0.35775104 -0.18738373 -0.12954524 0.052189577
000330 30 0d 93 bd 74 f9 45 3e a8 e7 f7 bc 6d 8d cf bd
       -0.0718025 0.1933344 -0.03026183 -0.10134397
000340 ca 19 47 3e 1e 85 ac be f0 f3 9a 3d b0 c8 b4 bd
       0.19443431 -0.3369531 0.07566059 -0.088273406
000350 ed 07 81 be c8 cf 89 be 0b fb 8e be 68 0f fe 3d
       -0.2520136 -0.26916337 -0.27925906 0.12405282
000360 59 1d b4 be 2c 15 d2 3d af 95 90 bd 25 bc 8c bd
       -0.3517864 0.102579445 -0.070598 -0.06871823
000370 29 b1 fb bc 47 40 31 3e 90 b3 38 3c 1c 9b da 3d
       -0.030724125 0.17309676 0.01127328 0.10674116
000380 f1 b1 1d bd 24 4f 12 3e fa 88 aa be eb c9 6e 3e
       -0.038499776 0.14288002 -0.3330763 0.23319213
000390 fe 68 14 3c 36 30 9d 3f 46 2d 39 bc 87 0f bc 3c
       0.009058235 1.2280338 -0.011302298 0.022956623
0003a0 74 e9 b9 3d 1e bc aa 3e 87 3d 73 3d a1 78 8d 3e
       0.09077731 0.33346647 0.05938485 0.27631095
0003b0 8d da 31 be d4 57 c6 3f 0b c9 07 3e 3f ee de 3c
       -0.17368527 1.5495553 0.13260286 0.027213214
0003c0 9f f4 d9 bd 5f 73 38 bf b9 c1 86 be dc 60 d1 bc
       -0.10642361 -0.7205104 -0.26319674 -0.025558881
0003d0 95 7f 37 be b8 f0 d3 3d c6 ef e5 bf 43 1f 66 3e
       -0.17919762 0.10348648 -1.7963798 0.22472863
0003e0 18 cf 42 3e 00 34 fc 3d c2 c2 22 3d b0 9e ab 3e
       0.19024312 0.12314606 0.039736517 0.33519506
0003f0 81 18 fd 3e 52 c2 cc bd c8 ba 61 be fe 0f 04 3f
       0.49432757 -0.09998001 -0.22043908 0.515869

sequential_8/dense_33/MatMul_bias f4 [32]
000000 73 ec 75 bd f3 b4 7e bd 08 0e 28 3e 10 32 3a 3e
       -0.06003995 -0.062184285 0.16411602 0.1818316
000010 c4 08 76 bd 4d 4a 08 3e 48 0a 80 bd e9 48 a9 bb
       -0.060066953 0.13309593 -0.06251961 -0.0051661623
000020 33 7e a6 bd 0b 27 9d 3d dc 01 fe 3d a6 2d 82 bd
       -0.08129539 0.076734625 0.124026984 -0.06356363
000030 e1 fa 75 bd 5c 3a 32 be 5e 22 0b be 5f 88 74 bd
       -0.06005371 -0.17405075 -0.13587329 -0.059700366
000040 05 46 8a be 60 af a4 be 00 00 00 00 dd 0b 3e bd
       -0.27006546 -0.3216505 0.0 -0.046398032
000050 b3 78 ba 3e b2 42 7b bd ed 74 d4 bd d3 bc 8e bd
       0.3642021 -0.061342902 -0.10373864 -0.06969609
000060 1c a6 b0 3d f3 ee a5 be a5 8c ad bd bb 44 87 3d
       0.08625433 -0.32408866 -0.084740914 0.06604906
000070 67 78 66 3c 13 ee f3 3d ce b1 84 bd e6 75 86 be
       0.014066792 0.119106434 -0.06479226 -0.26261824

sequential_8/dense_34/MatMul/ReadVariableOp/transpose f4 [32, 32]
000000 18 e8 6a 3e 22 95 93 be 33 e3 73 3e ee 37 b1 be
       0.22940099 -0.28824717 0.23817138 -0.34612983
000010 38 c1 b4 bc 5f 1a d5 ba b7 e9 c8 3c 70 67 ab be
       -0.02206479 -0.001625847 0.024525506 -0.33477354
000020 bb 0d 8b 3e 35 b0 bc bd db 6d a1 be 68 3b e1 3d
       0.27158913 -0.09213296 -0.31529126 0.10997659
000030 14 50 87 be 38 e1 0f 3e 33 47 88 3e 86 79 35 3e
       -0.26428282 0.14050758 0.2661682 0.17722139
000040 f4 51 a4 3d c1 ad 9a 3e 6a f0 fa bd f8 4f a4 be
       0.08023444 0.3021069 -0.122528866 -0.3209226
000050 a9 e7 31 be 27 86 54 be e0 26 4d bd c3 78 00 bc
       -0.17373528 -0.207543 -0.050085902 -0.007841292
000060 84 60 b1 bd 4c 51 23 3e ea 9d 25 3e 8c 45 ec bc
       -0.08660987 0.15948981 0.1617352 -0.028841756
000070 cf 9d 13 bc 44 ce 5f 3d 7a 67 c6 3d 1e 74 7d 3e
       -0.0090097925 0.05464007 0.09687705 0.24751326
000080 fe b5 6a 3e 00 ea f3 3d 90 26 0e 3e 67 16 8b bc
       0.22920987 0.11909866 0.13881898 -0.016978456
000090 72 ef 61 3e 48 92 bd bd d4 ca b5 be 38 7a 93 be
       0.22063997 -0.092564166 -0.35506308 -0.28804183
0000a0 3c cf e7 bd e8 3b 2d 3d d5 f1 2a be 98 02 ac 3d
       -0.11318824 0.04229346 -0.16693814 0.08398932
0000b0 63 6f 85 be 55 4d 97 3e 7c 7b cc 3d 7c 67 1a 3d
       -0.26061544 0.29551187 0.0998449 0.037696347
0000c0 a0 13 81 be da 6b 48 3e f8 c5 90 be a5 df 13 3b
       -0.25210285 0.19572392 -0.28276038 0.0022563722
0000d0 80 d0 77 bc ff 29 9d be 69 75 0a be 7d 64 17 ba
       -0.015125394 -0.30696103 -0.13521351 -0.0005775167
0000e0 f5 f3 38 be 2c ad 9f be 82 63 80 be 59 bf d0 bc
       -0.18061812 -0.31186807 -0.25075918 -0.025481867
0000f0 7c 68 ba be 6e 09 3c 3e d4 90 15 3d 7e 15 93 be
       -0.3640784 0.18362972 0.036515072 -0.28727335
000100 16 31 b8 3d 5f 0b 34 be 48 84 8f 3f ae e4 c3 bd
       0.089937374 -0.17582463 1.1212244 -0.095651016
000110 aa 4d 9b bd dc 8f 26 bf 4b 72 3c 3d 76 fa 0f 3d
       -0.075831726 -0.6506326 0.046007436 0.035150968
000120 8f d8 02 bd c9 71 5d bf 3e 12 76 3e 02 bf a8 bd
       -0.031944808 -0.8650175 0.24030396 -0.08239557
000130 70 f7 49 3e 9a 6b 07 3e 29 ed b7 3d d9 0c 04 be
       0.19723296 0.1322464 0.089807816 -0.12895526
000140 28 a8 d3 bd 9e 2f 4d bd 2f a8 8d 3e 85 e9 ad 3d
       -0.10334808 -0.05009424 0.27667376 0.08491806
000150 a2 3f 1a be 67 88 81 be 73 ef b1 bc bb 14 de 3d
       -0.15063336 -0.2529938 -0.021720624 0.10843798
000160 07 ad b9 3e 07 fc 5c be ba a6 fb bf 08 28 cf 3d
       0.36264822 -0.21580516 -1.9660256 0.10115057
000170 51 1c 54 3f da 3d b3 be 61 14 9a be 35 71 1f be
       0.8285571 -0.35008126 -0.30093673 -0.15570529
000180 b0 41 11 bd 15 a3 83 3e f9 98 0f 3e 23 7e d8 be
       -0.035463035 0.2571036 0.14023198 -0.42283735
000190 fe 08 6e 3e 64 3e ed 3d 60 03 f1 bd a3 3f 2a 3e
       0.23245618 0.11584166 -0.11768222 0.16625838
0001a0 08 a9 ad 3d 0b 11 0c 3e 31 e7 a0 bd 22 8e 6f be
       0.08479506 0.13678376 -0.07856596 -0.23394063
0001b0 20 0f ab 3d a0 f8 e1 3b 1a ff 62 3e fc fe af bd
       0.08352494 0.0068960935 0.22167626 -0.08593556
0001c0 bc 05 c6 3d 42 b2 3d be 44 99 72 bd 81 51 e6 3d
       0.096690625 -0.18525031 -0.059228197 0.112460144
0001d0 cc a3 a7 3c fa 73 53 3e c0 81 80 be 58 a0 05 bd
       0.020463847 0.2064971 -0.2509899 -0.03262362
0001e0 8c 69 bb be c5 b3 78 be db 45 5f 3e ff 79 c6 3d
       -0.36603963 -0.24287327 0.21803991 0.09691238
0001f0 9d 38 a1 bd e8 bc bc be 6a 8e f7 3d cc 85 9a 3d
       -0.07872126 -0.36862874 0.1208771 0.07545051
000200 9a 21 2b 3c ee bd 97 bd eb 46 83 3e dd a1 b2 bd
       0.010445023 -0.07409273 0.25640044 -0.08722279
000210 2d 45 5d bc e5 82 27 bf 2b e9 51 3d cb 97 1f bf
       -0.013505262 -0.65434104 0.051247757 -0.6234099
000220 c6 37 04 be c6 81 01 3e e7 a2 76 bd 5d 51 ca bd
       -0.12911901 0.12647161 -0.06021395 -0.098788
000230 ec b3 c7 bd bd b8 4c bd 2e 14 e9 bd 64 d4 a6 ba
       -0.09751114 -0.049980868 -0.11380802 -0.0012728092
000240 2c 30 f3 3d ac 13 f8 3d 96 67 f5 3c 91 a4 c6 3b
       0.118744224 0.12113127 0.02995662 0.0060620983
000250 1e 16 fd 3c d1 3f e4 bd 2f 8c 12 bc 2b 35 dd bd
       0.030894335 -0.111449845 -0.008944555 -0.108011566
000260 6a 5c 02 bc 84 ce 21 bd 0f 08 c1 bf 42 07 15 3f
       -0.007956604 -0.03950359 -1.5080584 0.582142
000270 c7 93 13 c0 f6 31 28 be 2f c6 f7 3c fd 98 ee 3d
       -2.3058946 -0.16425309 0.030245868 0.11650274
000280 a6 be e0 bc bb c9 47 be 49 24 36 be 9c f5 60 be
       -0.027434658 -0.19510548 -0.17787279 -0.21968693
000290 78 8a 70 3e c7 ce 17 3d 35 80 6f 3e 45 85 57 be
       0.23490322 0.037062433 0.23388751 -0.21046932
0002a0 26 12 45 3e a5 7a 6b be 88 c6 53 be b1 b4 78 3e
       0.19245204 -0.22996004 -0.20681202 0.24287678
0002b0 d4 6d 24 be 70 67 36 3c 90 7b e7 3c 85 e8 15 3d
       -0.16057521 0.01113306 0.028257161 0.0365987
0002c0 5c 3e 91 3d 22 c7 c6 bd 8a 8e 16 3e 07 c8 3a 3e
       0.07091972 -0.0970595 0.14702812 0.18240367
0002d0 20 3f 77 be c2 08 63 3b 59 b6 6a be c2 95 f2 bc
       -0.24145174 0.0034642671 -0.22921123 -0.029612426
0002e0 11 56 ef 3d 17 e9 86 be cb 78 62 3e c7 1a e5 bc
       0.11686338 -0.26349708 0.22116391 -0.02796687
0002f0 01 f5 03 3e e1 11 0d 3e c2 6d 3c be 95 41 8d 3e
       0.1288643 0.13776352 -0.18401244 0.27589098
000300 d8 58 f3 bd 4e 51 82 be ea a7 c8 be ff 13 35 bd
       -0.1188218 -0.25452656 -0.39190608 -0.044208523
000310 e4 cf a9 3d 69 88 3e bf 7d a6 45 be 25 75 e1 be
       0.08291605 -0.74426895 -0.19301791 -0.44034687
000320 68 67 2a bd 5e da 85 be 01 46 bd 3d 51 77 1c 3e
       -0.041602522 -0.26143163 0.09241868 0.1527989
000330 94 5d 34 bd 7c 6a ae 3d 15 4e 88 3e 54 05 62 3d
       -0.044034556 0.08516404 0.26622072 0.055180863
000340 41 f1 94 3e 8b 02 dd 3d ea 8e 67 3e b5 16 9e bd
       0.29090312 0.10791501 0.22613111 -0.07719175
000350 cd d7 55 3e 92 b3 7c 3e e5 59 a0 3e 88 b7 52 be
       0.20883103 0.24677876 0.31318584 -0.20577824
000360 c0 02 f0 be 75 61 76 be 43 39 b1 3e ef d3 a8 3e
       -0.46877098 -0.24060614 0.34614 0.32974193
000370 6c af b6 bf b0 1a 09 bf fa 88 1a 3e 49 9b 0e 3e
       -1.4272285 -0.53556347 0.15091315 0.13926424
000380 32 6b 7d 3d 8a 3f 2e 3e c0 bb 26 3f 09 fc 8f 3e
       0.061869808 0.17016426 0.65130234 0.28121975
000390 84 e3 09 3e 70 b9 d5 3f 01 6d f8 bd 1d 4e 51 3e
       0.13465697 1.6697216 -0.12130166 0.20439954
0003a0 8f be ef 3d 7f 78 94 bf 2c 07 f5 3e 4a 4c 4d 3e
       0.11706268 -1.1599272 0.47857034 0.20048633
0003b0 09 34 1c be f0 63 1a be bc e1 57 3d 6c 06 02 be
       -0.15254225 -0.15077186 0.05270551 -0.12697762
0003c0 d3 ae b7 3d d8 7b 12 be 23 59 c1 bd e8 fc 2d 3d
       0.08968892 -0.14305055 -0.094408296 0.04247752
0003d0 5c f1 99 bf 9b 1a 38 3c c6 3a 67 bd 95 1d 07 3e
       -1.2026782 0.011236812 -0.056452535 0.13194878
0003e0 34 87 91 3f 5b e1 de bd db 3b 0e be e1 13 ec 3e
       1.1369386 -0.10882827 -0.1389002 0.46108916
0003f0 44 db 58 bf b6 fa ba be 5e f6 87 3d d3 98 57 bd
       -0.8470957 -0.36519402 0.06638788 -0.05263598

sequential_8/dense_34/MatMul_bias f4 [32]
000000 f2 fa 75 bd ee 49 76 bd af c2 32 3e 47 03 ff bd
       -0.060053773 -0.0601291 0.17457078 -0.12451797
000010 fb 55 3f 3e d0 ac 90 bd 02 72 38 3e de ae 2e be
       0.18685143 -0.07064211 0.1801224 -0.17058894
000020 a1 37 77 bd 2e 17 b1 bd a9 d7 09 bd 6a 92 85 bd
       -0.060355786 -0.08646999 -0.033652935 -0.06522067
000030 97 8f 99 3d 98 a7 02 3d f7 c9 5f 3e 74 17 b2 bd
       0.07498091 0.03189811 0.21854387 -0.086958796
000040 cb 1f 6b bd 2a 91 40 3e 89 92 21 be 5c 1f 07 3e
       -0.057403367 0.18805376 -0.15778555 0.13195556
000050 83 86 01 be 3a 0e 7e bd ec 67 85 bd 41 bd 75 bd
       -0.12648968 -0.062025286 -0.06513962 -0.05999494
000060 c1 71 5b 3e c8 d5 5d 3d 00 00 00 00 c9 d9 e5 3d
       0.21430112 0.054158956 0.0 0.1122318
000070 16 21 82 bd 9a 65 30 3e ea 83 cc 3d dc 01 85 bd
       -0.06353967 0.17226258 0.09986098 -0.06494495

sequential_8/dense_35/MatMul/ReadVariableOp/transpose f4 [3, 32]
000000 94 a1 8b be a3 b9 d9 bd db 57 c8 3e 68 c1 7f 3d
       -0.27271712 -0.106311105 0.39129528 0.062440306
000010 7d 55 3c bf 58 ae a2 be b5 60 58 be 28 0e b9 3f
       -0.73567945 -0.3177364 -0.21130641 1.4457445
000020 90 46 81 be f6 63 9f be 9e b3 a4 bf 6b 64 f4 3e
       -0.25249147 -0.31130952 -1.2867315 0.47732863
000030 47 12 40 bb 8e 23 14 bd bf 79 36 3c 5c 97 78 bd
       -0.002930777 -0.03616672 0.011137425 -0.060691223
000040 63 2e fa bd 0e ab 9c bf d5 13 5b be 1c cd b8 3b
       -0.12215879 -1.2239702 -0.21394284 0.0056396853
000050 40 f0 95 be 12 b2 9b be 3d 8d 35 be 36 9d 15 3d
       -0.2928486 -0.30409294 -0.1772966 0.03652688
000060 27 e9 a1 3e c0 0d eb 3d 5a 47 16 3e b5 aa 87 3d
       0.31623194 0.11477232 0.14675656 0.06624357
000070 f3 5b 88 be 91 a3 ff be fb 75 c9 3d f7 ec f2 bc
       -0.26632652 -0.4992948 0.09836956 -0.02965401
000080 af ac be 3d ff f7 2a be 14 19 56 bd fc e1 17 be
       0.093102805 -0.16696166 -0.05227001 -0.148323
000090 a9 d4 6c bd a2 2f 61 be 1c 75 4a bb 80 21 e0 bc
       -0.057819996 -0.21990827 -0.0030892557 -0.027359724
0000a0 f1 bd 9b be 1a 99 ba 3d ba 74 d4 3e 5a 65 f2 3c
       -0.3041835 0.09111233 0.41495305 0.029589344
0000b0 72 55 09 3f 62 0b fb 3c f3 63 41 3f a0 9c 68 3d
       0.53646004 0.030645076 0.75543135 0.056789994
0000c0 e6 29 17 3e 90 0f ae 3e bb 39 d4 be 2b 6c f4 bc
       0.14762077 0.33996248 -0.41450295 -0.029836735
0000d0 ce af 62 3e ff f7 8d 3e 94 8a eb bd a3 f3 93 be
       0.22137377 0.27728269 -0.11501041 -0.28896818
0000e0 ad 44 a8 be d8 d3 8a bd 1f f8 8c 3e f9 4d 3e be
       -0.32864895 -0.06778687 0.2753305 -0.18584432
0000f0 30 dc c6 3e 7f e5 c4 be 92 32 54 bd 76 ae 39 3d
       0.38839865 -0.38456342 -0.05180604 0.045332395
000100 ee c1 66 3e b4 5e 8a bd e3 d8 b5 be 53 69 23 be
       0.22534916 -0.067563444 -0.35517034 -0.15958147
000110 76 14 49 3f cc ec 6f bd 14 6e 57 3e c1 37 b3 bf
       0.78546846 -0.058575436 0.21038085 -1.400139
000120 28 e2 9e be a6 1c 10 bb 31 bd 5f 3f 0d 62 fd be
       -0.3103192 -0.0021989732 0.8739806 -0.4948887
000130 8c eb 01 bf 05 c5 a2 3d a6 b9 40 bf 98 9e be 39
       -0.5075004 0.07947735 -0.7528328 0.00036357786
000140 90 0a ed 3d b8 ee 63 3f 1e ca 99 be 72 fb 80 3a
       0.1157428 0.8903613 -0.30037016 0.0009840562
000150 6f f2 b5 3d bb c7 14 3d 36 df 28 3e a8 fd 35 3e
       0.08884131 0.03632329 0.16491398 0.17772543
000160 27 f2 7e 3d 03 95 9f bd a1 f8 c5 be a3 26 03 3e
       0.062242653 -0.077920936 -0.3866625 0.12807707
000170 b3 9e 48 3c d5 cb 67 3f ca d0 a4 3c 96 c3 fe bd
       0.012244868 0.905454 0.02011909 -0.12439649

sequential_8/dense_35/MatMul_bias f4 [3]
000000 a8 27 cb 3e e0 96 1e 3e 8d 82 da 3e
       0.39678693 0.15487242 0.42677727
